{"class_name": "Sequential", "config": {"name": "sequential_1", "layers": [{"class_name": "Model", "config": {"name": "i3d_inception", "layers": [{"name": "input_1", "class_name": "InputLayer", "config": {"batch_input_shape": [null, 15, 224, 224, 3], "dtype": "float32", "sparse": false, "name": "input_1"}, "inbound_nodes": []}, {"name": "Conv3d_1a_7x7_conv", "class_name": "Conv3D", "config": {"name": "Conv3d_1a_7x7_conv", "trainable": true, "dtype": "float32", "filters": 64, "kernel_size": [7, 7, 7], "strides": [2, 2, 2], "padding": "same", "data_format": "channels_last", "dilation_rate": [1, 1, 1], "activation": "linear", "use_bias": false, "kernel_initializer": {"class_name": "VarianceScaling", "config": {"scale": 1.0, "mode": "fan_avg", "distribution": "uniform", "seed": null}}, "bias_initializer": {"class_name": "Zeros", "config": {}}, "kernel_regularizer": null, "bias_regularizer": null, "activity_regularizer": null, "kernel_constraint": null, "bias_constraint": null}, "inbound_nodes": [[["input_1", 0, 0, {}]]]}, {"name": "Conv3d_1a_7x7_bn", "class_name": "BatchNormalization", "config": {"name": "Conv3d_1a_7x7_bn", "trainable": true, "dtype": "float32", "axis": 4, "momentum": 0.99, "epsilon": 0.001, "center": true, "scale": false, "beta_initializer": {"class_name": "Zeros", "config": {}}, "gamma_initializer": {"class_name": "Ones", "config": {}}, "moving_mean_initializer": {"class_name": "Zeros", "config": {}}, "moving_variance_initializer": {"class_name": "Ones", "config": {}}, "beta_regularizer": null, "gamma_regularizer": null, "beta_constraint": null, "gamma_constraint": null}, "inbound_nodes": [[["Conv3d_1a_7x7_conv", 0, 0, {}]]]}, {"name": "Conv3d_1a_7x7", "class_name": "Activation", "config": {"name": "Conv3d_1a_7x7", "trainable": true, "dtype": "float32", "activation": "relu"}, "inbound_nodes": [[["Conv3d_1a_7x7_bn", 0, 0, {}]]]}, {"name": "MaxPool2d_2a_3x3", "class_name": "MaxPooling3D", "config": {"name": "MaxPool2d_2a_3x3", "trainable": true, "dtype": "float32", "pool_size": [1, 3, 3], "padding": "same", "strides": [1, 2, 2], "data_format": "channels_last"}, "inbound_nodes": [[["Conv3d_1a_7x7", 0, 0, {}]]]}, {"name": "Conv3d_2b_1x1_conv", "class_name": "Conv3D", "config": {"name": "Conv3d_2b_1x1_conv", "trainable": true, "dtype": "float32", "filters": 64, "kernel_size": [1, 1, 1], "strides": [1, 1, 1], "padding": "same", "data_format": "channels_last", "dilation_rate": [1, 1, 1], "activation": "linear", "use_bias": false, "kernel_initializer": {"class_name": "VarianceScaling", "config": {"scale": 1.0, "mode": "fan_avg", "distribution": "uniform", "seed": null}}, "bias_initializer": {"class_name": "Zeros", "config": {}}, "kernel_regularizer": null, "bias_regularizer": null, "activity_regularizer": null, "kernel_constraint": null, "bias_constraint": null}, "inbound_nodes": [[["MaxPool2d_2a_3x3", 0, 0, {}]]]}, {"name": "Conv3d_2b_1x1_bn", "class_name": "BatchNormalization", "config": {"name": "Conv3d_2b_1x1_bn", "trainable": true, "dtype": "float32", "axis": 4, "momentum": 0.99, "epsilon": 0.001, "center": true, "scale": false, "beta_initializer": {"class_name": "Zeros", "config": {}}, "gamma_initializer": {"class_name": "Ones", "config": {}}, "moving_mean_initializer": {"class_name": "Zeros", "config": {}}, "moving_variance_initializer": {"class_name": "Ones", "config": {}}, "beta_regularizer": null, "gamma_regularizer": null, "beta_constraint": null, "gamma_constraint": null}, "inbound_nodes": [[["Conv3d_2b_1x1_conv", 0, 0, {}]]]}, {"name": "Conv3d_2b_1x1", "class_name": "Activation", "config": {"name": "Conv3d_2b_1x1", "trainable": true, "dtype": "float32", "activation": "relu"}, "inbound_nodes": [[["Conv3d_2b_1x1_bn", 0, 0, {}]]]}, {"name": "Conv3d_2c_3x3_conv", "class_name": "Conv3D", "config": {"name": "Conv3d_2c_3x3_conv", "trainable": true, "dtype": "float32", "filters": 192, "kernel_size": [3, 3, 3], "strides": [1, 1, 1], "padding": "same", "data_format": "channels_last", "dilation_rate": [1, 1, 1], "activation": "linear", "use_bias": false, "kernel_initializer": {"class_name": "VarianceScaling", "config": {"scale": 1.0, "mode": "fan_avg", "distribution": "uniform", "seed": null}}, "bias_initializer": {"class_name": "Zeros", "config": {}}, "kernel_regularizer": null, "bias_regularizer": null, "activity_regularizer": null, "kernel_constraint": null, "bias_constraint": null}, "inbound_nodes": [[["Conv3d_2b_1x1", 0, 0, {}]]]}, {"name": "Conv3d_2c_3x3_bn", "class_name": "BatchNormalization", "config": {"name": "Conv3d_2c_3x3_bn", "trainable": true, "dtype": "float32", "axis": 4, "momentum": 0.99, "epsilon": 0.001, "center": true, "scale": false, "beta_initializer": {"class_name": "Zeros", "config": {}}, "gamma_initializer": {"class_name": "Ones", "config": {}}, "moving_mean_initializer": {"class_name": "Zeros", "config": {}}, "moving_variance_initializer": {"class_name": "Ones", "config": {}}, "beta_regularizer": null, "gamma_regularizer": null, "beta_constraint": null, "gamma_constraint": null}, "inbound_nodes": [[["Conv3d_2c_3x3_conv", 0, 0, {}]]]}, {"name": "Conv3d_2c_3x3", "class_name": "Activation", "config": {"name": "Conv3d_2c_3x3", "trainable": true, "dtype": "float32", "activation": "relu"}, "inbound_nodes": [[["Conv3d_2c_3x3_bn", 0, 0, {}]]]}, {"name": "MaxPool2d_3a_3x3", "class_name": "MaxPooling3D", "config": {"name": "MaxPool2d_3a_3x3", "trainable": true, "dtype": "float32", "pool_size": [1, 3, 3], "padding": "same", "strides": [1, 2, 2], "data_format": "channels_last"}, "inbound_nodes": [[["Conv3d_2c_3x3", 0, 0, {}]]]}, {"name": "Conv3d_3b_1a_1x1_conv", "class_name": "Conv3D", "config": {"name": "Conv3d_3b_1a_1x1_conv", "trainable": true, "dtype": "float32", "filters": 96, "kernel_size": [1, 1, 1], "strides": [1, 1, 1], "padding": "same", "data_format": "channels_last", "dilation_rate": [1, 1, 1], "activation": "linear", "use_bias": false, "kernel_initializer": {"class_name": "VarianceScaling", "config": {"scale": 1.0, "mode": "fan_avg", "distribution": "uniform", "seed": null}}, "bias_initializer": {"class_name": "Zeros", "config": {}}, "kernel_regularizer": null, "bias_regularizer": null, "activity_regularizer": null, "kernel_constraint": null, "bias_constraint": null}, "inbound_nodes": [[["MaxPool2d_3a_3x3", 0, 0, {}]]]}, {"name": "Conv3d_3b_2a_1x1_conv", "class_name": "Conv3D", "config": {"name": "Conv3d_3b_2a_1x1_conv", "trainable": true, "dtype": "float32", "filters": 16, "kernel_size": [1, 1, 1], "strides": [1, 1, 1], "padding": "same", "data_format": "channels_last", "dilation_rate": [1, 1, 1], "activation": "linear", "use_bias": false, "kernel_initializer": {"class_name": "VarianceScaling", "config": {"scale": 1.0, "mode": "fan_avg", "distribution": "uniform", "seed": null}}, "bias_initializer": {"class_name": "Zeros", "config": {}}, "kernel_regularizer": null, "bias_regularizer": null, "activity_regularizer": null, "kernel_constraint": null, "bias_constraint": null}, "inbound_nodes": [[["MaxPool2d_3a_3x3", 0, 0, {}]]]}, {"name": "Conv3d_3b_1a_1x1_bn", "class_name": "BatchNormalization", "config": {"name": "Conv3d_3b_1a_1x1_bn", "trainable": true, "dtype": "float32", "axis": 4, "momentum": 0.99, "epsilon": 0.001, "center": true, "scale": false, "beta_initializer": {"class_name": "Zeros", "config": {}}, "gamma_initializer": {"class_name": "Ones", "config": {}}, "moving_mean_initializer": {"class_name": "Zeros", "config": {}}, "moving_variance_initializer": {"class_name": "Ones", "config": {}}, "beta_regularizer": null, "gamma_regularizer": null, "beta_constraint": null, "gamma_constraint": null}, "inbound_nodes": [[["Conv3d_3b_1a_1x1_conv", 0, 0, {}]]]}, {"name": "Conv3d_3b_2a_1x1_bn", "class_name": "BatchNormalization", "config": {"name": "Conv3d_3b_2a_1x1_bn", "trainable": true, "dtype": "float32", "axis": 4, "momentum": 0.99, "epsilon": 0.001, "center": true, "scale": false, "beta_initializer": {"class_name": "Zeros", "config": {}}, "gamma_initializer": {"class_name": "Ones", "config": {}}, "moving_mean_initializer": {"class_name": "Zeros", "config": {}}, "moving_variance_initializer": {"class_name": "Ones", "config": {}}, "beta_regularizer": null, "gamma_regularizer": null, "beta_constraint": null, "gamma_constraint": null}, "inbound_nodes": [[["Conv3d_3b_2a_1x1_conv", 0, 0, {}]]]}, {"name": "Conv3d_3b_1a_1x1", "class_name": "Activation", "config": {"name": "Conv3d_3b_1a_1x1", "trainable": true, "dtype": "float32", "activation": "relu"}, "inbound_nodes": [[["Conv3d_3b_1a_1x1_bn", 0, 0, {}]]]}, {"name": "Conv3d_3b_2a_1x1", "class_name": "Activation", "config": {"name": "Conv3d_3b_2a_1x1", "trainable": true, "dtype": "float32", "activation": "relu"}, "inbound_nodes": [[["Conv3d_3b_2a_1x1_bn", 0, 0, {}]]]}, {"name": "MaxPool2d_3b_3a_3x3", "class_name": "MaxPooling3D", "config": {"name": "MaxPool2d_3b_3a_3x3", "trainable": true, "dtype": "float32", "pool_size": [3, 3, 3], "padding": "same", "strides": [1, 1, 1], "data_format": "channels_last"}, "inbound_nodes": [[["MaxPool2d_3a_3x3", 0, 0, {}]]]}, {"name": "Conv3d_3b_0a_1x1_conv", "class_name": "Conv3D", "config": {"name": "Conv3d_3b_0a_1x1_conv", "trainable": true, "dtype": "float32", "filters": 64, "kernel_size": [1, 1, 1], "strides": [1, 1, 1], "padding": "same", "data_format": "channels_last", "dilation_rate": [1, 1, 1], "activation": "linear", "use_bias": false, "kernel_initializer": {"class_name": "VarianceScaling", "config": {"scale": 1.0, "mode": "fan_avg", "distribution": "uniform", "seed": null}}, "bias_initializer": {"class_name": "Zeros", "config": {}}, "kernel_regularizer": null, "bias_regularizer": null, "activity_regularizer": null, "kernel_constraint": null, "bias_constraint": null}, "inbound_nodes": [[["MaxPool2d_3a_3x3", 0, 0, {}]]]}, {"name": "Conv3d_3b_1b_3x3_conv", "class_name": "Conv3D", "config": {"name": "Conv3d_3b_1b_3x3_conv", "trainable": true, "dtype": "float32", "filters": 128, "kernel_size": [3, 3, 3], "strides": [1, 1, 1], "padding": "same", "data_format": "channels_last", "dilation_rate": [1, 1, 1], "activation": "linear", "use_bias": false, "kernel_initializer": {"class_name": "VarianceScaling", "config": {"scale": 1.0, "mode": "fan_avg", "distribution": "uniform", "seed": null}}, "bias_initializer": {"class_name": "Zeros", "config": {}}, "kernel_regularizer": null, "bias_regularizer": null, "activity_regularizer": null, "kernel_constraint": null, "bias_constraint": null}, "inbound_nodes": [[["Conv3d_3b_1a_1x1", 0, 0, {}]]]}, {"name": "Conv3d_3b_2b_3x3_conv", "class_name": "Conv3D", "config": {"name": "Conv3d_3b_2b_3x3_conv", "trainable": true, "dtype": "float32", "filters": 32, "kernel_size": [3, 3, 3], "strides": [1, 1, 1], "padding": "same", "data_format": "channels_last", "dilation_rate": [1, 1, 1], "activation": "linear", "use_bias": false, "kernel_initializer": {"class_name": "VarianceScaling", "config": {"scale": 1.0, "mode": "fan_avg", "distribution": "uniform", "seed": null}}, "bias_initializer": {"class_name": "Zeros", "config": {}}, "kernel_regularizer": null, "bias_regularizer": null, "activity_regularizer": null, "kernel_constraint": null, "bias_constraint": null}, "inbound_nodes": [[["Conv3d_3b_2a_1x1", 0, 0, {}]]]}, {"name": "Conv3d_3b_3b_1x1_conv", "class_name": "Conv3D", "config": {"name": "Conv3d_3b_3b_1x1_conv", "trainable": true, "dtype": "float32", "filters": 32, "kernel_size": [1, 1, 1], "strides": [1, 1, 1], "padding": "same", "data_format": "channels_last", "dilation_rate": [1, 1, 1], "activation": "linear", "use_bias": false, "kernel_initializer": {"class_name": "VarianceScaling", "config": {"scale": 1.0, "mode": "fan_avg", "distribution": "uniform", "seed": null}}, "bias_initializer": {"class_name": "Zeros", "config": {}}, "kernel_regularizer": null, "bias_regularizer": null, "activity_regularizer": null, "kernel_constraint": null, "bias_constraint": null}, "inbound_nodes": [[["MaxPool2d_3b_3a_3x3", 0, 0, {}]]]}, {"name": "Conv3d_3b_0a_1x1_bn", "class_name": "BatchNormalization", "config": {"name": "Conv3d_3b_0a_1x1_bn", "trainable": true, "dtype": "float32", "axis": 4, "momentum": 0.99, "epsilon": 0.001, "center": true, "scale": false, "beta_initializer": {"class_name": "Zeros", "config": {}}, "gamma_initializer": {"class_name": "Ones", "config": {}}, "moving_mean_initializer": {"class_name": "Zeros", "config": {}}, "moving_variance_initializer": {"class_name": "Ones", "config": {}}, "beta_regularizer": null, "gamma_regularizer": null, "beta_constraint": null, "gamma_constraint": null}, "inbound_nodes": [[["Conv3d_3b_0a_1x1_conv", 0, 0, {}]]]}, {"name": "Conv3d_3b_1b_3x3_bn", "class_name": "BatchNormalization", "config": {"name": "Conv3d_3b_1b_3x3_bn", "trainable": true, "dtype": "float32", "axis": 4, "momentum": 0.99, "epsilon": 0.001, "center": true, "scale": false, "beta_initializer": {"class_name": "Zeros", "config": {}}, "gamma_initializer": {"class_name": "Ones", "config": {}}, "moving_mean_initializer": {"class_name": "Zeros", "config": {}}, "moving_variance_initializer": {"class_name": "Ones", "config": {}}, "beta_regularizer": null, "gamma_regularizer": null, "beta_constraint": null, "gamma_constraint": null}, "inbound_nodes": [[["Conv3d_3b_1b_3x3_conv", 0, 0, {}]]]}, {"name": "Conv3d_3b_2b_3x3_bn", "class_name": "BatchNormalization", "config": {"name": "Conv3d_3b_2b_3x3_bn", "trainable": true, "dtype": "float32", "axis": 4, "momentum": 0.99, "epsilon": 0.001, "center": true, "scale": false, "beta_initializer": {"class_name": "Zeros", "config": {}}, "gamma_initializer": {"class_name": "Ones", "config": {}}, "moving_mean_initializer": {"class_name": "Zeros", "config": {}}, "moving_variance_initializer": {"class_name": "Ones", "config": {}}, "beta_regularizer": null, "gamma_regularizer": null, "beta_constraint": null, "gamma_constraint": null}, "inbound_nodes": [[["Conv3d_3b_2b_3x3_conv", 0, 0, {}]]]}, {"name": "Conv3d_3b_3b_1x1_bn", "class_name": "BatchNormalization", "config": {"name": "Conv3d_3b_3b_1x1_bn", "trainable": true, "dtype": "float32", "axis": 4, "momentum": 0.99, "epsilon": 0.001, "center": true, "scale": false, "beta_initializer": {"class_name": "Zeros", "config": {}}, "gamma_initializer": {"class_name": "Ones", "config": {}}, "moving_mean_initializer": {"class_name": "Zeros", "config": {}}, "moving_variance_initializer": {"class_name": "Ones", "config": {}}, "beta_regularizer": null, "gamma_regularizer": null, "beta_constraint": null, "gamma_constraint": null}, "inbound_nodes": [[["Conv3d_3b_3b_1x1_conv", 0, 0, {}]]]}, {"name": "Conv3d_3b_0a_1x1", "class_name": "Activation", "config": {"name": "Conv3d_3b_0a_1x1", "trainable": true, "dtype": "float32", "activation": "relu"}, "inbound_nodes": [[["Conv3d_3b_0a_1x1_bn", 0, 0, {}]]]}, {"name": "Conv3d_3b_1b_3x3", "class_name": "Activation", "config": {"name": "Conv3d_3b_1b_3x3", "trainable": true, "dtype": "float32", "activation": "relu"}, "inbound_nodes": [[["Conv3d_3b_1b_3x3_bn", 0, 0, {}]]]}, {"name": "Conv3d_3b_2b_3x3", "class_name": "Activation", "config": {"name": "Conv3d_3b_2b_3x3", "trainable": true, "dtype": "float32", "activation": "relu"}, "inbound_nodes": [[["Conv3d_3b_2b_3x3_bn", 0, 0, {}]]]}, {"name": "Conv3d_3b_3b_1x1", "class_name": "Activation", "config": {"name": "Conv3d_3b_3b_1x1", "trainable": true, "dtype": "float32", "activation": "relu"}, "inbound_nodes": [[["Conv3d_3b_3b_1x1_bn", 0, 0, {}]]]}, {"name": "Mixed_3b", "class_name": "Concatenate", "config": {"name": "Mixed_3b", "trainable": true, "dtype": "float32", "axis": 4}, "inbound_nodes": [[["Conv3d_3b_0a_1x1", 0, 0, {}], ["Conv3d_3b_1b_3x3", 0, 0, {}], ["Conv3d_3b_2b_3x3", 0, 0, {}], ["Conv3d_3b_3b_1x1", 0, 0, {}]]]}, {"name": "Conv3d_3c_1a_1x1_conv", "class_name": "Conv3D", "config": {"name": "Conv3d_3c_1a_1x1_conv", "trainable": true, "dtype": "float32", "filters": 128, "kernel_size": [1, 1, 1], "strides": [1, 1, 1], "padding": "same", "data_format": "channels_last", "dilation_rate": [1, 1, 1], "activation": "linear", "use_bias": false, "kernel_initializer": {"class_name": "VarianceScaling", "config": {"scale": 1.0, "mode": "fan_avg", "distribution": "uniform", "seed": null}}, "bias_initializer": {"class_name": "Zeros", "config": {}}, "kernel_regularizer": null, "bias_regularizer": null, "activity_regularizer": null, "kernel_constraint": null, "bias_constraint": null}, "inbound_nodes": [[["Mixed_3b", 0, 0, {}]]]}, {"name": "Conv3d_3c_2a_1x1_conv", "class_name": "Conv3D", "config": {"name": "Conv3d_3c_2a_1x1_conv", "trainable": true, "dtype": "float32", "filters": 32, "kernel_size": [1, 1, 1], "strides": [1, 1, 1], "padding": "same", "data_format": "channels_last", "dilation_rate": [1, 1, 1], "activation": "linear", "use_bias": false, "kernel_initializer": {"class_name": "VarianceScaling", "config": {"scale": 1.0, "mode": "fan_avg", "distribution": "uniform", "seed": null}}, "bias_initializer": {"class_name": "Zeros", "config": {}}, "kernel_regularizer": null, "bias_regularizer": null, "activity_regularizer": null, "kernel_constraint": null, "bias_constraint": null}, "inbound_nodes": [[["Mixed_3b", 0, 0, {}]]]}, {"name": "Conv3d_3c_1a_1x1_bn", "class_name": "BatchNormalization", "config": {"name": "Conv3d_3c_1a_1x1_bn", "trainable": true, "dtype": "float32", "axis": 4, "momentum": 0.99, "epsilon": 0.001, "center": true, "scale": false, "beta_initializer": {"class_name": "Zeros", "config": {}}, "gamma_initializer": {"class_name": "Ones", "config": {}}, "moving_mean_initializer": {"class_name": "Zeros", "config": {}}, "moving_variance_initializer": {"class_name": "Ones", "config": {}}, "beta_regularizer": null, "gamma_regularizer": null, "beta_constraint": null, "gamma_constraint": null}, "inbound_nodes": [[["Conv3d_3c_1a_1x1_conv", 0, 0, {}]]]}, {"name": "Conv3d_3c_2a_1x1_bn", "class_name": "BatchNormalization", "config": {"name": "Conv3d_3c_2a_1x1_bn", "trainable": true, "dtype": "float32", "axis": 4, "momentum": 0.99, "epsilon": 0.001, "center": true, "scale": false, "beta_initializer": {"class_name": "Zeros", "config": {}}, "gamma_initializer": {"class_name": "Ones", "config": {}}, "moving_mean_initializer": {"class_name": "Zeros", "config": {}}, "moving_variance_initializer": {"class_name": "Ones", "config": {}}, "beta_regularizer": null, "gamma_regularizer": null, "beta_constraint": null, "gamma_constraint": null}, "inbound_nodes": [[["Conv3d_3c_2a_1x1_conv", 0, 0, {}]]]}, {"name": "Conv3d_3c_1a_1x1", "class_name": "Activation", "config": {"name": "Conv3d_3c_1a_1x1", "trainable": true, "dtype": "float32", "activation": "relu"}, "inbound_nodes": [[["Conv3d_3c_1a_1x1_bn", 0, 0, {}]]]}, {"name": "Conv3d_3c_2a_1x1", "class_name": "Activation", "config": {"name": "Conv3d_3c_2a_1x1", "trainable": true, "dtype": "float32", "activation": "relu"}, "inbound_nodes": [[["Conv3d_3c_2a_1x1_bn", 0, 0, {}]]]}, {"name": "MaxPool2d_3c_3a_3x3", "class_name": "MaxPooling3D", "config": {"name": "MaxPool2d_3c_3a_3x3", "trainable": true, "dtype": "float32", "pool_size": [3, 3, 3], "padding": "same", "strides": [1, 1, 1], "data_format": "channels_last"}, "inbound_nodes": [[["Mixed_3b", 0, 0, {}]]]}, {"name": "Conv3d_3c_0a_1x1_conv", "class_name": "Conv3D", "config": {"name": "Conv3d_3c_0a_1x1_conv", "trainable": true, "dtype": "float32", "filters": 128, "kernel_size": [1, 1, 1], "strides": [1, 1, 1], "padding": "same", "data_format": "channels_last", "dilation_rate": [1, 1, 1], "activation": "linear", "use_bias": false, "kernel_initializer": {"class_name": "VarianceScaling", "config": {"scale": 1.0, "mode": "fan_avg", "distribution": "uniform", "seed": null}}, "bias_initializer": {"class_name": "Zeros", "config": {}}, "kernel_regularizer": null, "bias_regularizer": null, "activity_regularizer": null, "kernel_constraint": null, "bias_constraint": null}, "inbound_nodes": [[["Mixed_3b", 0, 0, {}]]]}, {"name": "Conv3d_3c_1b_3x3_conv", "class_name": "Conv3D", "config": {"name": "Conv3d_3c_1b_3x3_conv", "trainable": true, "dtype": "float32", "filters": 192, "kernel_size": [3, 3, 3], "strides": [1, 1, 1], "padding": "same", "data_format": "channels_last", "dilation_rate": [1, 1, 1], "activation": "linear", "use_bias": false, "kernel_initializer": {"class_name": "VarianceScaling", "config": {"scale": 1.0, "mode": "fan_avg", "distribution": "uniform", "seed": null}}, "bias_initializer": {"class_name": "Zeros", "config": {}}, "kernel_regularizer": null, "bias_regularizer": null, "activity_regularizer": null, "kernel_constraint": null, "bias_constraint": null}, "inbound_nodes": [[["Conv3d_3c_1a_1x1", 0, 0, {}]]]}, {"name": "Conv3d_3c_2b_3x3_conv", "class_name": "Conv3D", "config": {"name": "Conv3d_3c_2b_3x3_conv", "trainable": true, "dtype": "float32", "filters": 96, "kernel_size": [3, 3, 3], "strides": [1, 1, 1], "padding": "same", "data_format": "channels_last", "dilation_rate": [1, 1, 1], "activation": "linear", "use_bias": false, "kernel_initializer": {"class_name": "VarianceScaling", "config": {"scale": 1.0, "mode": "fan_avg", "distribution": "uniform", "seed": null}}, "bias_initializer": {"class_name": "Zeros", "config": {}}, "kernel_regularizer": null, "bias_regularizer": null, "activity_regularizer": null, "kernel_constraint": null, "bias_constraint": null}, "inbound_nodes": [[["Conv3d_3c_2a_1x1", 0, 0, {}]]]}, {"name": "Conv3d_3c_3b_1x1_conv", "class_name": "Conv3D", "config": {"name": "Conv3d_3c_3b_1x1_conv", "trainable": true, "dtype": "float32", "filters": 64, "kernel_size": [1, 1, 1], "strides": [1, 1, 1], "padding": "same", "data_format": "channels_last", "dilation_rate": [1, 1, 1], "activation": "linear", "use_bias": false, "kernel_initializer": {"class_name": "VarianceScaling", "config": {"scale": 1.0, "mode": "fan_avg", "distribution": "uniform", "seed": null}}, "bias_initializer": {"class_name": "Zeros", "config": {}}, "kernel_regularizer": null, "bias_regularizer": null, "activity_regularizer": null, "kernel_constraint": null, "bias_constraint": null}, "inbound_nodes": [[["MaxPool2d_3c_3a_3x3", 0, 0, {}]]]}, {"name": "Conv3d_3c_0a_1x1_bn", "class_name": "BatchNormalization", "config": {"name": "Conv3d_3c_0a_1x1_bn", "trainable": true, "dtype": "float32", "axis": 4, "momentum": 0.99, "epsilon": 0.001, "center": true, "scale": false, "beta_initializer": {"class_name": "Zeros", "config": {}}, "gamma_initializer": {"class_name": "Ones", "config": {}}, "moving_mean_initializer": {"class_name": "Zeros", "config": {}}, "moving_variance_initializer": {"class_name": "Ones", "config": {}}, "beta_regularizer": null, "gamma_regularizer": null, "beta_constraint": null, "gamma_constraint": null}, "inbound_nodes": [[["Conv3d_3c_0a_1x1_conv", 0, 0, {}]]]}, {"name": "Conv3d_3c_1b_3x3_bn", "class_name": "BatchNormalization", "config": {"name": "Conv3d_3c_1b_3x3_bn", "trainable": true, "dtype": "float32", "axis": 4, "momentum": 0.99, "epsilon": 0.001, "center": true, "scale": false, "beta_initializer": {"class_name": "Zeros", "config": {}}, "gamma_initializer": {"class_name": "Ones", "config": {}}, "moving_mean_initializer": {"class_name": "Zeros", "config": {}}, "moving_variance_initializer": {"class_name": "Ones", "config": {}}, "beta_regularizer": null, "gamma_regularizer": null, "beta_constraint": null, "gamma_constraint": null}, "inbound_nodes": [[["Conv3d_3c_1b_3x3_conv", 0, 0, {}]]]}, {"name": "Conv3d_3c_2b_3x3_bn", "class_name": "BatchNormalization", "config": {"name": "Conv3d_3c_2b_3x3_bn", "trainable": true, "dtype": "float32", "axis": 4, "momentum": 0.99, "epsilon": 0.001, "center": true, "scale": false, "beta_initializer": {"class_name": "Zeros", "config": {}}, "gamma_initializer": {"class_name": "Ones", "config": {}}, "moving_mean_initializer": {"class_name": "Zeros", "config": {}}, "moving_variance_initializer": {"class_name": "Ones", "config": {}}, "beta_regularizer": null, "gamma_regularizer": null, "beta_constraint": null, "gamma_constraint": null}, "inbound_nodes": [[["Conv3d_3c_2b_3x3_conv", 0, 0, {}]]]}, {"name": "Conv3d_3c_3b_1x1_bn", "class_name": "BatchNormalization", "config": {"name": "Conv3d_3c_3b_1x1_bn", "trainable": true, "dtype": "float32", "axis": 4, "momentum": 0.99, "epsilon": 0.001, "center": true, "scale": false, "beta_initializer": {"class_name": "Zeros", "config": {}}, "gamma_initializer": {"class_name": "Ones", "config": {}}, "moving_mean_initializer": {"class_name": "Zeros", "config": {}}, "moving_variance_initializer": {"class_name": "Ones", "config": {}}, "beta_regularizer": null, "gamma_regularizer": null, "beta_constraint": null, "gamma_constraint": null}, "inbound_nodes": [[["Conv3d_3c_3b_1x1_conv", 0, 0, {}]]]}, {"name": "Conv3d_3c_0a_1x1", "class_name": "Activation", "config": {"name": "Conv3d_3c_0a_1x1", "trainable": true, "dtype": "float32", "activation": "relu"}, "inbound_nodes": [[["Conv3d_3c_0a_1x1_bn", 0, 0, {}]]]}, {"name": "Conv3d_3c_1b_3x3", "class_name": "Activation", "config": {"name": "Conv3d_3c_1b_3x3", "trainable": true, "dtype": "float32", "activation": "relu"}, "inbound_nodes": [[["Conv3d_3c_1b_3x3_bn", 0, 0, {}]]]}, {"name": "Conv3d_3c_2b_3x3", "class_name": "Activation", "config": {"name": "Conv3d_3c_2b_3x3", "trainable": true, "dtype": "float32", "activation": "relu"}, "inbound_nodes": [[["Conv3d_3c_2b_3x3_bn", 0, 0, {}]]]}, {"name": "Conv3d_3c_3b_1x1", "class_name": "Activation", "config": {"name": "Conv3d_3c_3b_1x1", "trainable": true, "dtype": "float32", "activation": "relu"}, "inbound_nodes": [[["Conv3d_3c_3b_1x1_bn", 0, 0, {}]]]}, {"name": "Mixed_3c", "class_name": "Concatenate", "config": {"name": "Mixed_3c", "trainable": true, "dtype": "float32", "axis": 4}, "inbound_nodes": [[["Conv3d_3c_0a_1x1", 0, 0, {}], ["Conv3d_3c_1b_3x3", 0, 0, {}], ["Conv3d_3c_2b_3x3", 0, 0, {}], ["Conv3d_3c_3b_1x1", 0, 0, {}]]]}, {"name": "MaxPool2d_4a_3x3", "class_name": "MaxPooling3D", "config": {"name": "MaxPool2d_4a_3x3", "trainable": true, "dtype": "float32", "pool_size": [3, 3, 3], "padding": "same", "strides": [2, 2, 2], "data_format": "channels_last"}, "inbound_nodes": [[["Mixed_3c", 0, 0, {}]]]}, {"name": "Conv3d_4b_1a_1x1_conv", "class_name": "Conv3D", "config": {"name": "Conv3d_4b_1a_1x1_conv", "trainable": true, "dtype": "float32", "filters": 96, "kernel_size": [1, 1, 1], "strides": [1, 1, 1], "padding": "same", "data_format": "channels_last", "dilation_rate": [1, 1, 1], "activation": "linear", "use_bias": false, "kernel_initializer": {"class_name": "VarianceScaling", "config": {"scale": 1.0, "mode": "fan_avg", "distribution": "uniform", "seed": null}}, "bias_initializer": {"class_name": "Zeros", "config": {}}, "kernel_regularizer": null, "bias_regularizer": null, "activity_regularizer": null, "kernel_constraint": null, "bias_constraint": null}, "inbound_nodes": [[["MaxPool2d_4a_3x3", 0, 0, {}]]]}, {"name": "Conv3d_4b_2a_1x1_conv", "class_name": "Conv3D", "config": {"name": "Conv3d_4b_2a_1x1_conv", "trainable": true, "dtype": "float32", "filters": 16, "kernel_size": [1, 1, 1], "strides": [1, 1, 1], "padding": "same", "data_format": "channels_last", "dilation_rate": [1, 1, 1], "activation": "linear", "use_bias": false, "kernel_initializer": {"class_name": "VarianceScaling", "config": {"scale": 1.0, "mode": "fan_avg", "distribution": "uniform", "seed": null}}, "bias_initializer": {"class_name": "Zeros", "config": {}}, "kernel_regularizer": null, "bias_regularizer": null, "activity_regularizer": null, "kernel_constraint": null, "bias_constraint": null}, "inbound_nodes": [[["MaxPool2d_4a_3x3", 0, 0, {}]]]}, {"name": "Conv3d_4b_1a_1x1_bn", "class_name": "BatchNormalization", "config": {"name": "Conv3d_4b_1a_1x1_bn", "trainable": true, "dtype": "float32", "axis": 4, "momentum": 0.99, "epsilon": 0.001, "center": true, "scale": false, "beta_initializer": {"class_name": "Zeros", "config": {}}, "gamma_initializer": {"class_name": "Ones", "config": {}}, "moving_mean_initializer": {"class_name": "Zeros", "config": {}}, "moving_variance_initializer": {"class_name": "Ones", "config": {}}, "beta_regularizer": null, "gamma_regularizer": null, "beta_constraint": null, "gamma_constraint": null}, "inbound_nodes": [[["Conv3d_4b_1a_1x1_conv", 0, 0, {}]]]}, {"name": "Conv3d_4b_2a_1x1_bn", "class_name": "BatchNormalization", "config": {"name": "Conv3d_4b_2a_1x1_bn", "trainable": true, "dtype": "float32", "axis": 4, "momentum": 0.99, "epsilon": 0.001, "center": true, "scale": false, "beta_initializer": {"class_name": "Zeros", "config": {}}, "gamma_initializer": {"class_name": "Ones", "config": {}}, "moving_mean_initializer": {"class_name": "Zeros", "config": {}}, "moving_variance_initializer": {"class_name": "Ones", "config": {}}, "beta_regularizer": null, "gamma_regularizer": null, "beta_constraint": null, "gamma_constraint": null}, "inbound_nodes": [[["Conv3d_4b_2a_1x1_conv", 0, 0, {}]]]}, {"name": "Conv3d_4b_1a_1x1", "class_name": "Activation", "config": {"name": "Conv3d_4b_1a_1x1", "trainable": true, "dtype": "float32", "activation": "relu"}, "inbound_nodes": [[["Conv3d_4b_1a_1x1_bn", 0, 0, {}]]]}, {"name": "Conv3d_4b_2a_1x1", "class_name": "Activation", "config": {"name": "Conv3d_4b_2a_1x1", "trainable": true, "dtype": "float32", "activation": "relu"}, "inbound_nodes": [[["Conv3d_4b_2a_1x1_bn", 0, 0, {}]]]}, {"name": "MaxPool2d_4b_3a_3x3", "class_name": "MaxPooling3D", "config": {"name": "MaxPool2d_4b_3a_3x3", "trainable": true, "dtype": "float32", "pool_size": [3, 3, 3], "padding": "same", "strides": [1, 1, 1], "data_format": "channels_last"}, "inbound_nodes": [[["MaxPool2d_4a_3x3", 0, 0, {}]]]}, {"name": "Conv3d_4b_0a_1x1_conv", "class_name": "Conv3D", "config": {"name": "Conv3d_4b_0a_1x1_conv", "trainable": true, "dtype": "float32", "filters": 192, "kernel_size": [1, 1, 1], "strides": [1, 1, 1], "padding": "same", "data_format": "channels_last", "dilation_rate": [1, 1, 1], "activation": "linear", "use_bias": false, "kernel_initializer": {"class_name": "VarianceScaling", "config": {"scale": 1.0, "mode": "fan_avg", "distribution": "uniform", "seed": null}}, "bias_initializer": {"class_name": "Zeros", "config": {}}, "kernel_regularizer": null, "bias_regularizer": null, "activity_regularizer": null, "kernel_constraint": null, "bias_constraint": null}, "inbound_nodes": [[["MaxPool2d_4a_3x3", 0, 0, {}]]]}, {"name": "Conv3d_4b_1b_3x3_conv", "class_name": "Conv3D", "config": {"name": "Conv3d_4b_1b_3x3_conv", "trainable": true, "dtype": "float32", "filters": 208, "kernel_size": [3, 3, 3], "strides": [1, 1, 1], "padding": "same", "data_format": "channels_last", "dilation_rate": [1, 1, 1], "activation": "linear", "use_bias": false, "kernel_initializer": {"class_name": "VarianceScaling", "config": {"scale": 1.0, "mode": "fan_avg", "distribution": "uniform", "seed": null}}, "bias_initializer": {"class_name": "Zeros", "config": {}}, "kernel_regularizer": null, "bias_regularizer": null, "activity_regularizer": null, "kernel_constraint": null, "bias_constraint": null}, "inbound_nodes": [[["Conv3d_4b_1a_1x1", 0, 0, {}]]]}, {"name": "Conv3d_4b_2b_3x3_conv", "class_name": "Conv3D", "config": {"name": "Conv3d_4b_2b_3x3_conv", "trainable": true, "dtype": "float32", "filters": 48, "kernel_size": [3, 3, 3], "strides": [1, 1, 1], "padding": "same", "data_format": "channels_last", "dilation_rate": [1, 1, 1], "activation": "linear", "use_bias": false, "kernel_initializer": {"class_name": "VarianceScaling", "config": {"scale": 1.0, "mode": "fan_avg", "distribution": "uniform", "seed": null}}, "bias_initializer": {"class_name": "Zeros", "config": {}}, "kernel_regularizer": null, "bias_regularizer": null, "activity_regularizer": null, "kernel_constraint": null, "bias_constraint": null}, "inbound_nodes": [[["Conv3d_4b_2a_1x1", 0, 0, {}]]]}, {"name": "Conv3d_4b_3b_1x1_conv", "class_name": "Conv3D", "config": {"name": "Conv3d_4b_3b_1x1_conv", "trainable": true, "dtype": "float32", "filters": 64, "kernel_size": [1, 1, 1], "strides": [1, 1, 1], "padding": "same", "data_format": "channels_last", "dilation_rate": [1, 1, 1], "activation": "linear", "use_bias": false, "kernel_initializer": {"class_name": "VarianceScaling", "config": {"scale": 1.0, "mode": "fan_avg", "distribution": "uniform", "seed": null}}, "bias_initializer": {"class_name": "Zeros", "config": {}}, "kernel_regularizer": null, "bias_regularizer": null, "activity_regularizer": null, "kernel_constraint": null, "bias_constraint": null}, "inbound_nodes": [[["MaxPool2d_4b_3a_3x3", 0, 0, {}]]]}, {"name": "Conv3d_4b_0a_1x1_bn", "class_name": "BatchNormalization", "config": {"name": "Conv3d_4b_0a_1x1_bn", "trainable": true, "dtype": "float32", "axis": 4, "momentum": 0.99, "epsilon": 0.001, "center": true, "scale": false, "beta_initializer": {"class_name": "Zeros", "config": {}}, "gamma_initializer": {"class_name": "Ones", "config": {}}, "moving_mean_initializer": {"class_name": "Zeros", "config": {}}, "moving_variance_initializer": {"class_name": "Ones", "config": {}}, "beta_regularizer": null, "gamma_regularizer": null, "beta_constraint": null, "gamma_constraint": null}, "inbound_nodes": [[["Conv3d_4b_0a_1x1_conv", 0, 0, {}]]]}, {"name": "Conv3d_4b_1b_3x3_bn", "class_name": "BatchNormalization", "config": {"name": "Conv3d_4b_1b_3x3_bn", "trainable": true, "dtype": "float32", "axis": 4, "momentum": 0.99, "epsilon": 0.001, "center": true, "scale": false, "beta_initializer": {"class_name": "Zeros", "config": {}}, "gamma_initializer": {"class_name": "Ones", "config": {}}, "moving_mean_initializer": {"class_name": "Zeros", "config": {}}, "moving_variance_initializer": {"class_name": "Ones", "config": {}}, "beta_regularizer": null, "gamma_regularizer": null, "beta_constraint": null, "gamma_constraint": null}, "inbound_nodes": [[["Conv3d_4b_1b_3x3_conv", 0, 0, {}]]]}, {"name": "Conv3d_4b_2b_3x3_bn", "class_name": "BatchNormalization", "config": {"name": "Conv3d_4b_2b_3x3_bn", "trainable": true, "dtype": "float32", "axis": 4, "momentum": 0.99, "epsilon": 0.001, "center": true, "scale": false, "beta_initializer": {"class_name": "Zeros", "config": {}}, "gamma_initializer": {"class_name": "Ones", "config": {}}, "moving_mean_initializer": {"class_name": "Zeros", "config": {}}, "moving_variance_initializer": {"class_name": "Ones", "config": {}}, "beta_regularizer": null, "gamma_regularizer": null, "beta_constraint": null, "gamma_constraint": null}, "inbound_nodes": [[["Conv3d_4b_2b_3x3_conv", 0, 0, {}]]]}, {"name": "Conv3d_4b_3b_1x1_bn", "class_name": "BatchNormalization", "config": {"name": "Conv3d_4b_3b_1x1_bn", "trainable": true, "dtype": "float32", "axis": 4, "momentum": 0.99, "epsilon": 0.001, "center": true, "scale": false, "beta_initializer": {"class_name": "Zeros", "config": {}}, "gamma_initializer": {"class_name": "Ones", "config": {}}, "moving_mean_initializer": {"class_name": "Zeros", "config": {}}, "moving_variance_initializer": {"class_name": "Ones", "config": {}}, "beta_regularizer": null, "gamma_regularizer": null, "beta_constraint": null, "gamma_constraint": null}, "inbound_nodes": [[["Conv3d_4b_3b_1x1_conv", 0, 0, {}]]]}, {"name": "Conv3d_4b_0a_1x1", "class_name": "Activation", "config": {"name": "Conv3d_4b_0a_1x1", "trainable": true, "dtype": "float32", "activation": "relu"}, "inbound_nodes": [[["Conv3d_4b_0a_1x1_bn", 0, 0, {}]]]}, {"name": "Conv3d_4b_1b_3x3", "class_name": "Activation", "config": {"name": "Conv3d_4b_1b_3x3", "trainable": true, "dtype": "float32", "activation": "relu"}, "inbound_nodes": [[["Conv3d_4b_1b_3x3_bn", 0, 0, {}]]]}, {"name": "Conv3d_4b_2b_3x3", "class_name": "Activation", "config": {"name": "Conv3d_4b_2b_3x3", "trainable": true, "dtype": "float32", "activation": "relu"}, "inbound_nodes": [[["Conv3d_4b_2b_3x3_bn", 0, 0, {}]]]}, {"name": "Conv3d_4b_3b_1x1", "class_name": "Activation", "config": {"name": "Conv3d_4b_3b_1x1", "trainable": true, "dtype": "float32", "activation": "relu"}, "inbound_nodes": [[["Conv3d_4b_3b_1x1_bn", 0, 0, {}]]]}, {"name": "Mixed_4b", "class_name": "Concatenate", "config": {"name": "Mixed_4b", "trainable": true, "dtype": "float32", "axis": 4}, "inbound_nodes": [[["Conv3d_4b_0a_1x1", 0, 0, {}], ["Conv3d_4b_1b_3x3", 0, 0, {}], ["Conv3d_4b_2b_3x3", 0, 0, {}], ["Conv3d_4b_3b_1x1", 0, 0, {}]]]}, {"name": "Conv3d_4c_1a_1x1_conv", "class_name": "Conv3D", "config": {"name": "Conv3d_4c_1a_1x1_conv", "trainable": true, "dtype": "float32", "filters": 112, "kernel_size": [1, 1, 1], "strides": [1, 1, 1], "padding": "same", "data_format": "channels_last", "dilation_rate": [1, 1, 1], "activation": "linear", "use_bias": false, "kernel_initializer": {"class_name": "VarianceScaling", "config": {"scale": 1.0, "mode": "fan_avg", "distribution": "uniform", "seed": null}}, "bias_initializer": {"class_name": "Zeros", "config": {}}, "kernel_regularizer": null, "bias_regularizer": null, "activity_regularizer": null, "kernel_constraint": null, "bias_constraint": null}, "inbound_nodes": [[["Mixed_4b", 0, 0, {}]]]}, {"name": "Conv3d_4c_2a_1x1_conv", "class_name": "Conv3D", "config": {"name": "Conv3d_4c_2a_1x1_conv", "trainable": true, "dtype": "float32", "filters": 24, "kernel_size": [1, 1, 1], "strides": [1, 1, 1], "padding": "same", "data_format": "channels_last", "dilation_rate": [1, 1, 1], "activation": "linear", "use_bias": false, "kernel_initializer": {"class_name": "VarianceScaling", "config": {"scale": 1.0, "mode": "fan_avg", "distribution": "uniform", "seed": null}}, "bias_initializer": {"class_name": "Zeros", "config": {}}, "kernel_regularizer": null, "bias_regularizer": null, "activity_regularizer": null, "kernel_constraint": null, "bias_constraint": null}, "inbound_nodes": [[["Mixed_4b", 0, 0, {}]]]}, {"name": "Conv3d_4c_1a_1x1_bn", "class_name": "BatchNormalization", "config": {"name": "Conv3d_4c_1a_1x1_bn", "trainable": true, "dtype": "float32", "axis": 4, "momentum": 0.99, "epsilon": 0.001, "center": true, "scale": false, "beta_initializer": {"class_name": "Zeros", "config": {}}, "gamma_initializer": {"class_name": "Ones", "config": {}}, "moving_mean_initializer": {"class_name": "Zeros", "config": {}}, "moving_variance_initializer": {"class_name": "Ones", "config": {}}, "beta_regularizer": null, "gamma_regularizer": null, "beta_constraint": null, "gamma_constraint": null}, "inbound_nodes": [[["Conv3d_4c_1a_1x1_conv", 0, 0, {}]]]}, {"name": "Conv3d_4c_2a_1x1_bn", "class_name": "BatchNormalization", "config": {"name": "Conv3d_4c_2a_1x1_bn", "trainable": true, "dtype": "float32", "axis": 4, "momentum": 0.99, "epsilon": 0.001, "center": true, "scale": false, "beta_initializer": {"class_name": "Zeros", "config": {}}, "gamma_initializer": {"class_name": "Ones", "config": {}}, "moving_mean_initializer": {"class_name": "Zeros", "config": {}}, "moving_variance_initializer": {"class_name": "Ones", "config": {}}, "beta_regularizer": null, "gamma_regularizer": null, "beta_constraint": null, "gamma_constraint": null}, "inbound_nodes": [[["Conv3d_4c_2a_1x1_conv", 0, 0, {}]]]}, {"name": "Conv3d_4c_1a_1x1", "class_name": "Activation", "config": {"name": "Conv3d_4c_1a_1x1", "trainable": true, "dtype": "float32", "activation": "relu"}, "inbound_nodes": [[["Conv3d_4c_1a_1x1_bn", 0, 0, {}]]]}, {"name": "Conv3d_4c_2a_1x1", "class_name": "Activation", "config": {"name": "Conv3d_4c_2a_1x1", "trainable": true, "dtype": "float32", "activation": "relu"}, "inbound_nodes": [[["Conv3d_4c_2a_1x1_bn", 0, 0, {}]]]}, {"name": "MaxPool2d_4c_3a_3x3", "class_name": "MaxPooling3D", "config": {"name": "MaxPool2d_4c_3a_3x3", "trainable": true, "dtype": "float32", "pool_size": [3, 3, 3], "padding": "same", "strides": [1, 1, 1], "data_format": "channels_last"}, "inbound_nodes": [[["Mixed_4b", 0, 0, {}]]]}, {"name": "Conv3d_4c_0a_1x1_conv", "class_name": "Conv3D", "config": {"name": "Conv3d_4c_0a_1x1_conv", "trainable": true, "dtype": "float32", "filters": 160, "kernel_size": [1, 1, 1], "strides": [1, 1, 1], "padding": "same", "data_format": "channels_last", "dilation_rate": [1, 1, 1], "activation": "linear", "use_bias": false, "kernel_initializer": {"class_name": "VarianceScaling", "config": {"scale": 1.0, "mode": "fan_avg", "distribution": "uniform", "seed": null}}, "bias_initializer": {"class_name": "Zeros", "config": {}}, "kernel_regularizer": null, "bias_regularizer": null, "activity_regularizer": null, "kernel_constraint": null, "bias_constraint": null}, "inbound_nodes": [[["Mixed_4b", 0, 0, {}]]]}, {"name": "Conv3d_4c_1b_3x3_conv", "class_name": "Conv3D", "config": {"name": "Conv3d_4c_1b_3x3_conv", "trainable": true, "dtype": "float32", "filters": 224, "kernel_size": [3, 3, 3], "strides": [1, 1, 1], "padding": "same", "data_format": "channels_last", "dilation_rate": [1, 1, 1], "activation": "linear", "use_bias": false, "kernel_initializer": {"class_name": "VarianceScaling", "config": {"scale": 1.0, "mode": "fan_avg", "distribution": "uniform", "seed": null}}, "bias_initializer": {"class_name": "Zeros", "config": {}}, "kernel_regularizer": null, "bias_regularizer": null, "activity_regularizer": null, "kernel_constraint": null, "bias_constraint": null}, "inbound_nodes": [[["Conv3d_4c_1a_1x1", 0, 0, {}]]]}, {"name": "Conv3d_4c_2b_3x3_conv", "class_name": "Conv3D", "config": {"name": "Conv3d_4c_2b_3x3_conv", "trainable": true, "dtype": "float32", "filters": 64, "kernel_size": [3, 3, 3], "strides": [1, 1, 1], "padding": "same", "data_format": "channels_last", "dilation_rate": [1, 1, 1], "activation": "linear", "use_bias": false, "kernel_initializer": {"class_name": "VarianceScaling", "config": {"scale": 1.0, "mode": "fan_avg", "distribution": "uniform", "seed": null}}, "bias_initializer": {"class_name": "Zeros", "config": {}}, "kernel_regularizer": null, "bias_regularizer": null, "activity_regularizer": null, "kernel_constraint": null, "bias_constraint": null}, "inbound_nodes": [[["Conv3d_4c_2a_1x1", 0, 0, {}]]]}, {"name": "Conv3d_4c_3b_1x1_conv", "class_name": "Conv3D", "config": {"name": "Conv3d_4c_3b_1x1_conv", "trainable": true, "dtype": "float32", "filters": 64, "kernel_size": [1, 1, 1], "strides": [1, 1, 1], "padding": "same", "data_format": "channels_last", "dilation_rate": [1, 1, 1], "activation": "linear", "use_bias": false, "kernel_initializer": {"class_name": "VarianceScaling", "config": {"scale": 1.0, "mode": "fan_avg", "distribution": "uniform", "seed": null}}, "bias_initializer": {"class_name": "Zeros", "config": {}}, "kernel_regularizer": null, "bias_regularizer": null, "activity_regularizer": null, "kernel_constraint": null, "bias_constraint": null}, "inbound_nodes": [[["MaxPool2d_4c_3a_3x3", 0, 0, {}]]]}, {"name": "Conv3d_4c_0a_1x1_bn", "class_name": "BatchNormalization", "config": {"name": "Conv3d_4c_0a_1x1_bn", "trainable": true, "dtype": "float32", "axis": 4, "momentum": 0.99, "epsilon": 0.001, "center": true, "scale": false, "beta_initializer": {"class_name": "Zeros", "config": {}}, "gamma_initializer": {"class_name": "Ones", "config": {}}, "moving_mean_initializer": {"class_name": "Zeros", "config": {}}, "moving_variance_initializer": {"class_name": "Ones", "config": {}}, "beta_regularizer": null, "gamma_regularizer": null, "beta_constraint": null, "gamma_constraint": null}, "inbound_nodes": [[["Conv3d_4c_0a_1x1_conv", 0, 0, {}]]]}, {"name": "Conv3d_4c_1b_3x3_bn", "class_name": "BatchNormalization", "config": {"name": "Conv3d_4c_1b_3x3_bn", "trainable": true, "dtype": "float32", "axis": 4, "momentum": 0.99, "epsilon": 0.001, "center": true, "scale": false, "beta_initializer": {"class_name": "Zeros", "config": {}}, "gamma_initializer": {"class_name": "Ones", "config": {}}, "moving_mean_initializer": {"class_name": "Zeros", "config": {}}, "moving_variance_initializer": {"class_name": "Ones", "config": {}}, "beta_regularizer": null, "gamma_regularizer": null, "beta_constraint": null, "gamma_constraint": null}, "inbound_nodes": [[["Conv3d_4c_1b_3x3_conv", 0, 0, {}]]]}, {"name": "Conv3d_4c_2b_3x3_bn", "class_name": "BatchNormalization", "config": {"name": "Conv3d_4c_2b_3x3_bn", "trainable": true, "dtype": "float32", "axis": 4, "momentum": 0.99, "epsilon": 0.001, "center": true, "scale": false, "beta_initializer": {"class_name": "Zeros", "config": {}}, "gamma_initializer": {"class_name": "Ones", "config": {}}, "moving_mean_initializer": {"class_name": "Zeros", "config": {}}, "moving_variance_initializer": {"class_name": "Ones", "config": {}}, "beta_regularizer": null, "gamma_regularizer": null, "beta_constraint": null, "gamma_constraint": null}, "inbound_nodes": [[["Conv3d_4c_2b_3x3_conv", 0, 0, {}]]]}, {"name": "Conv3d_4c_3b_1x1_bn", "class_name": "BatchNormalization", "config": {"name": "Conv3d_4c_3b_1x1_bn", "trainable": true, "dtype": "float32", "axis": 4, "momentum": 0.99, "epsilon": 0.001, "center": true, "scale": false, "beta_initializer": {"class_name": "Zeros", "config": {}}, "gamma_initializer": {"class_name": "Ones", "config": {}}, "moving_mean_initializer": {"class_name": "Zeros", "config": {}}, "moving_variance_initializer": {"class_name": "Ones", "config": {}}, "beta_regularizer": null, "gamma_regularizer": null, "beta_constraint": null, "gamma_constraint": null}, "inbound_nodes": [[["Conv3d_4c_3b_1x1_conv", 0, 0, {}]]]}, {"name": "Conv3d_4c_0a_1x1", "class_name": "Activation", "config": {"name": "Conv3d_4c_0a_1x1", "trainable": true, "dtype": "float32", "activation": "relu"}, "inbound_nodes": [[["Conv3d_4c_0a_1x1_bn", 0, 0, {}]]]}, {"name": "Conv3d_4c_1b_3x3", "class_name": "Activation", "config": {"name": "Conv3d_4c_1b_3x3", "trainable": true, "dtype": "float32", "activation": "relu"}, "inbound_nodes": [[["Conv3d_4c_1b_3x3_bn", 0, 0, {}]]]}, {"name": "Conv3d_4c_2b_3x3", "class_name": "Activation", "config": {"name": "Conv3d_4c_2b_3x3", "trainable": true, "dtype": "float32", "activation": "relu"}, "inbound_nodes": [[["Conv3d_4c_2b_3x3_bn", 0, 0, {}]]]}, {"name": "Conv3d_4c_3b_1x1", "class_name": "Activation", "config": {"name": "Conv3d_4c_3b_1x1", "trainable": true, "dtype": "float32", "activation": "relu"}, "inbound_nodes": [[["Conv3d_4c_3b_1x1_bn", 0, 0, {}]]]}, {"name": "Mixed_4c", "class_name": "Concatenate", "config": {"name": "Mixed_4c", "trainable": true, "dtype": "float32", "axis": 4}, "inbound_nodes": [[["Conv3d_4c_0a_1x1", 0, 0, {}], ["Conv3d_4c_1b_3x3", 0, 0, {}], ["Conv3d_4c_2b_3x3", 0, 0, {}], ["Conv3d_4c_3b_1x1", 0, 0, {}]]]}, {"name": "Conv3d_4d_1a_1x1_conv", "class_name": "Conv3D", "config": {"name": "Conv3d_4d_1a_1x1_conv", "trainable": true, "dtype": "float32", "filters": 128, "kernel_size": [1, 1, 1], "strides": [1, 1, 1], "padding": "same", "data_format": "channels_last", "dilation_rate": [1, 1, 1], "activation": "linear", "use_bias": false, "kernel_initializer": {"class_name": "VarianceScaling", "config": {"scale": 1.0, "mode": "fan_avg", "distribution": "uniform", "seed": null}}, "bias_initializer": {"class_name": "Zeros", "config": {}}, "kernel_regularizer": null, "bias_regularizer": null, "activity_regularizer": null, "kernel_constraint": null, "bias_constraint": null}, "inbound_nodes": [[["Mixed_4c", 0, 0, {}]]]}, {"name": "Conv3d_4d_2a_1x1_conv", "class_name": "Conv3D", "config": {"name": "Conv3d_4d_2a_1x1_conv", "trainable": true, "dtype": "float32", "filters": 24, "kernel_size": [1, 1, 1], "strides": [1, 1, 1], "padding": "same", "data_format": "channels_last", "dilation_rate": [1, 1, 1], "activation": "linear", "use_bias": false, "kernel_initializer": {"class_name": "VarianceScaling", "config": {"scale": 1.0, "mode": "fan_avg", "distribution": "uniform", "seed": null}}, "bias_initializer": {"class_name": "Zeros", "config": {}}, "kernel_regularizer": null, "bias_regularizer": null, "activity_regularizer": null, "kernel_constraint": null, "bias_constraint": null}, "inbound_nodes": [[["Mixed_4c", 0, 0, {}]]]}, {"name": "Conv3d_4d_1a_1x1_bn", "class_name": "BatchNormalization", "config": {"name": "Conv3d_4d_1a_1x1_bn", "trainable": true, "dtype": "float32", "axis": 4, "momentum": 0.99, "epsilon": 0.001, "center": true, "scale": false, "beta_initializer": {"class_name": "Zeros", "config": {}}, "gamma_initializer": {"class_name": "Ones", "config": {}}, "moving_mean_initializer": {"class_name": "Zeros", "config": {}}, "moving_variance_initializer": {"class_name": "Ones", "config": {}}, "beta_regularizer": null, "gamma_regularizer": null, "beta_constraint": null, "gamma_constraint": null}, "inbound_nodes": [[["Conv3d_4d_1a_1x1_conv", 0, 0, {}]]]}, {"name": "Conv3d_4d_2a_1x1_bn", "class_name": "BatchNormalization", "config": {"name": "Conv3d_4d_2a_1x1_bn", "trainable": true, "dtype": "float32", "axis": 4, "momentum": 0.99, "epsilon": 0.001, "center": true, "scale": false, "beta_initializer": {"class_name": "Zeros", "config": {}}, "gamma_initializer": {"class_name": "Ones", "config": {}}, "moving_mean_initializer": {"class_name": "Zeros", "config": {}}, "moving_variance_initializer": {"class_name": "Ones", "config": {}}, "beta_regularizer": null, "gamma_regularizer": null, "beta_constraint": null, "gamma_constraint": null}, "inbound_nodes": [[["Conv3d_4d_2a_1x1_conv", 0, 0, {}]]]}, {"name": "Conv3d_4d_1a_1x1", "class_name": "Activation", "config": {"name": "Conv3d_4d_1a_1x1", "trainable": true, "dtype": "float32", "activation": "relu"}, "inbound_nodes": [[["Conv3d_4d_1a_1x1_bn", 0, 0, {}]]]}, {"name": "Conv3d_4d_2a_1x1", "class_name": "Activation", "config": {"name": "Conv3d_4d_2a_1x1", "trainable": true, "dtype": "float32", "activation": "relu"}, "inbound_nodes": [[["Conv3d_4d_2a_1x1_bn", 0, 0, {}]]]}, {"name": "MaxPool2d_4d_3a_3x3", "class_name": "MaxPooling3D", "config": {"name": "MaxPool2d_4d_3a_3x3", "trainable": true, "dtype": "float32", "pool_size": [3, 3, 3], "padding": "same", "strides": [1, 1, 1], "data_format": "channels_last"}, "inbound_nodes": [[["Mixed_4c", 0, 0, {}]]]}, {"name": "Conv3d_4d_0a_1x1_conv", "class_name": "Conv3D", "config": {"name": "Conv3d_4d_0a_1x1_conv", "trainable": true, "dtype": "float32", "filters": 128, "kernel_size": [1, 1, 1], "strides": [1, 1, 1], "padding": "same", "data_format": "channels_last", "dilation_rate": [1, 1, 1], "activation": "linear", "use_bias": false, "kernel_initializer": {"class_name": "VarianceScaling", "config": {"scale": 1.0, "mode": "fan_avg", "distribution": "uniform", "seed": null}}, "bias_initializer": {"class_name": "Zeros", "config": {}}, "kernel_regularizer": null, "bias_regularizer": null, "activity_regularizer": null, "kernel_constraint": null, "bias_constraint": null}, "inbound_nodes": [[["Mixed_4c", 0, 0, {}]]]}, {"name": "Conv3d_4d_1b_3x3_conv", "class_name": "Conv3D", "config": {"name": "Conv3d_4d_1b_3x3_conv", "trainable": true, "dtype": "float32", "filters": 256, "kernel_size": [3, 3, 3], "strides": [1, 1, 1], "padding": "same", "data_format": "channels_last", "dilation_rate": [1, 1, 1], "activation": "linear", "use_bias": false, "kernel_initializer": {"class_name": "VarianceScaling", "config": {"scale": 1.0, "mode": "fan_avg", "distribution": "uniform", "seed": null}}, "bias_initializer": {"class_name": "Zeros", "config": {}}, "kernel_regularizer": null, "bias_regularizer": null, "activity_regularizer": null, "kernel_constraint": null, "bias_constraint": null}, "inbound_nodes": [[["Conv3d_4d_1a_1x1", 0, 0, {}]]]}, {"name": "Conv3d_4d_2b_3x3_conv", "class_name": "Conv3D", "config": {"name": "Conv3d_4d_2b_3x3_conv", "trainable": true, "dtype": "float32", "filters": 64, "kernel_size": [3, 3, 3], "strides": [1, 1, 1], "padding": "same", "data_format": "channels_last", "dilation_rate": [1, 1, 1], "activation": "linear", "use_bias": false, "kernel_initializer": {"class_name": "VarianceScaling", "config": {"scale": 1.0, "mode": "fan_avg", "distribution": "uniform", "seed": null}}, "bias_initializer": {"class_name": "Zeros", "config": {}}, "kernel_regularizer": null, "bias_regularizer": null, "activity_regularizer": null, "kernel_constraint": null, "bias_constraint": null}, "inbound_nodes": [[["Conv3d_4d_2a_1x1", 0, 0, {}]]]}, {"name": "Conv3d_4d_3b_1x1_conv", "class_name": "Conv3D", "config": {"name": "Conv3d_4d_3b_1x1_conv", "trainable": true, "dtype": "float32", "filters": 64, "kernel_size": [1, 1, 1], "strides": [1, 1, 1], "padding": "same", "data_format": "channels_last", "dilation_rate": [1, 1, 1], "activation": "linear", "use_bias": false, "kernel_initializer": {"class_name": "VarianceScaling", "config": {"scale": 1.0, "mode": "fan_avg", "distribution": "uniform", "seed": null}}, "bias_initializer": {"class_name": "Zeros", "config": {}}, "kernel_regularizer": null, "bias_regularizer": null, "activity_regularizer": null, "kernel_constraint": null, "bias_constraint": null}, "inbound_nodes": [[["MaxPool2d_4d_3a_3x3", 0, 0, {}]]]}, {"name": "Conv3d_4d_0a_1x1_bn", "class_name": "BatchNormalization", "config": {"name": "Conv3d_4d_0a_1x1_bn", "trainable": true, "dtype": "float32", "axis": 4, "momentum": 0.99, "epsilon": 0.001, "center": true, "scale": false, "beta_initializer": {"class_name": "Zeros", "config": {}}, "gamma_initializer": {"class_name": "Ones", "config": {}}, "moving_mean_initializer": {"class_name": "Zeros", "config": {}}, "moving_variance_initializer": {"class_name": "Ones", "config": {}}, "beta_regularizer": null, "gamma_regularizer": null, "beta_constraint": null, "gamma_constraint": null}, "inbound_nodes": [[["Conv3d_4d_0a_1x1_conv", 0, 0, {}]]]}, {"name": "Conv3d_4d_1b_3x3_bn", "class_name": "BatchNormalization", "config": {"name": "Conv3d_4d_1b_3x3_bn", "trainable": true, "dtype": "float32", "axis": 4, "momentum": 0.99, "epsilon": 0.001, "center": true, "scale": false, "beta_initializer": {"class_name": "Zeros", "config": {}}, "gamma_initializer": {"class_name": "Ones", "config": {}}, "moving_mean_initializer": {"class_name": "Zeros", "config": {}}, "moving_variance_initializer": {"class_name": "Ones", "config": {}}, "beta_regularizer": null, "gamma_regularizer": null, "beta_constraint": null, "gamma_constraint": null}, "inbound_nodes": [[["Conv3d_4d_1b_3x3_conv", 0, 0, {}]]]}, {"name": "Conv3d_4d_2b_3x3_bn", "class_name": "BatchNormalization", "config": {"name": "Conv3d_4d_2b_3x3_bn", "trainable": true, "dtype": "float32", "axis": 4, "momentum": 0.99, "epsilon": 0.001, "center": true, "scale": false, "beta_initializer": {"class_name": "Zeros", "config": {}}, "gamma_initializer": {"class_name": "Ones", "config": {}}, "moving_mean_initializer": {"class_name": "Zeros", "config": {}}, "moving_variance_initializer": {"class_name": "Ones", "config": {}}, "beta_regularizer": null, "gamma_regularizer": null, "beta_constraint": null, "gamma_constraint": null}, "inbound_nodes": [[["Conv3d_4d_2b_3x3_conv", 0, 0, {}]]]}, {"name": "Conv3d_4d_3b_1x1_bn", "class_name": "BatchNormalization", "config": {"name": "Conv3d_4d_3b_1x1_bn", "trainable": true, "dtype": "float32", "axis": 4, "momentum": 0.99, "epsilon": 0.001, "center": true, "scale": false, "beta_initializer": {"class_name": "Zeros", "config": {}}, "gamma_initializer": {"class_name": "Ones", "config": {}}, "moving_mean_initializer": {"class_name": "Zeros", "config": {}}, "moving_variance_initializer": {"class_name": "Ones", "config": {}}, "beta_regularizer": null, "gamma_regularizer": null, "beta_constraint": null, "gamma_constraint": null}, "inbound_nodes": [[["Conv3d_4d_3b_1x1_conv", 0, 0, {}]]]}, {"name": "Conv3d_4d_0a_1x1", "class_name": "Activation", "config": {"name": "Conv3d_4d_0a_1x1", "trainable": true, "dtype": "float32", "activation": "relu"}, "inbound_nodes": [[["Conv3d_4d_0a_1x1_bn", 0, 0, {}]]]}, {"name": "Conv3d_4d_1b_3x3", "class_name": "Activation", "config": {"name": "Conv3d_4d_1b_3x3", "trainable": true, "dtype": "float32", "activation": "relu"}, "inbound_nodes": [[["Conv3d_4d_1b_3x3_bn", 0, 0, {}]]]}, {"name": "Conv3d_4d_2b_3x3", "class_name": "Activation", "config": {"name": "Conv3d_4d_2b_3x3", "trainable": true, "dtype": "float32", "activation": "relu"}, "inbound_nodes": [[["Conv3d_4d_2b_3x3_bn", 0, 0, {}]]]}, {"name": "Conv3d_4d_3b_1x1", "class_name": "Activation", "config": {"name": "Conv3d_4d_3b_1x1", "trainable": true, "dtype": "float32", "activation": "relu"}, "inbound_nodes": [[["Conv3d_4d_3b_1x1_bn", 0, 0, {}]]]}, {"name": "Mixed_4d", "class_name": "Concatenate", "config": {"name": "Mixed_4d", "trainable": true, "dtype": "float32", "axis": 4}, "inbound_nodes": [[["Conv3d_4d_0a_1x1", 0, 0, {}], ["Conv3d_4d_1b_3x3", 0, 0, {}], ["Conv3d_4d_2b_3x3", 0, 0, {}], ["Conv3d_4d_3b_1x1", 0, 0, {}]]]}, {"name": "Conv3d_4e_1a_1x1_conv", "class_name": "Conv3D", "config": {"name": "Conv3d_4e_1a_1x1_conv", "trainable": true, "dtype": "float32", "filters": 144, "kernel_size": [1, 1, 1], "strides": [1, 1, 1], "padding": "same", "data_format": "channels_last", "dilation_rate": [1, 1, 1], "activation": "linear", "use_bias": false, "kernel_initializer": {"class_name": "VarianceScaling", "config": {"scale": 1.0, "mode": "fan_avg", "distribution": "uniform", "seed": null}}, "bias_initializer": {"class_name": "Zeros", "config": {}}, "kernel_regularizer": null, "bias_regularizer": null, "activity_regularizer": null, "kernel_constraint": null, "bias_constraint": null}, "inbound_nodes": [[["Mixed_4d", 0, 0, {}]]]}, {"name": "Conv3d_4e_2a_1x1_conv", "class_name": "Conv3D", "config": {"name": "Conv3d_4e_2a_1x1_conv", "trainable": true, "dtype": "float32", "filters": 32, "kernel_size": [1, 1, 1], "strides": [1, 1, 1], "padding": "same", "data_format": "channels_last", "dilation_rate": [1, 1, 1], "activation": "linear", "use_bias": false, "kernel_initializer": {"class_name": "VarianceScaling", "config": {"scale": 1.0, "mode": "fan_avg", "distribution": "uniform", "seed": null}}, "bias_initializer": {"class_name": "Zeros", "config": {}}, "kernel_regularizer": null, "bias_regularizer": null, "activity_regularizer": null, "kernel_constraint": null, "bias_constraint": null}, "inbound_nodes": [[["Mixed_4d", 0, 0, {}]]]}, {"name": "Conv3d_4e_1a_1x1_bn", "class_name": "BatchNormalization", "config": {"name": "Conv3d_4e_1a_1x1_bn", "trainable": true, "dtype": "float32", "axis": 4, "momentum": 0.99, "epsilon": 0.001, "center": true, "scale": false, "beta_initializer": {"class_name": "Zeros", "config": {}}, "gamma_initializer": {"class_name": "Ones", "config": {}}, "moving_mean_initializer": {"class_name": "Zeros", "config": {}}, "moving_variance_initializer": {"class_name": "Ones", "config": {}}, "beta_regularizer": null, "gamma_regularizer": null, "beta_constraint": null, "gamma_constraint": null}, "inbound_nodes": [[["Conv3d_4e_1a_1x1_conv", 0, 0, {}]]]}, {"name": "Conv3d_4e_2a_1x1_bn", "class_name": "BatchNormalization", "config": {"name": "Conv3d_4e_2a_1x1_bn", "trainable": true, "dtype": "float32", "axis": 4, "momentum": 0.99, "epsilon": 0.001, "center": true, "scale": false, "beta_initializer": {"class_name": "Zeros", "config": {}}, "gamma_initializer": {"class_name": "Ones", "config": {}}, "moving_mean_initializer": {"class_name": "Zeros", "config": {}}, "moving_variance_initializer": {"class_name": "Ones", "config": {}}, "beta_regularizer": null, "gamma_regularizer": null, "beta_constraint": null, "gamma_constraint": null}, "inbound_nodes": [[["Conv3d_4e_2a_1x1_conv", 0, 0, {}]]]}, {"name": "Conv3d_4e_1a_1x1", "class_name": "Activation", "config": {"name": "Conv3d_4e_1a_1x1", "trainable": true, "dtype": "float32", "activation": "relu"}, "inbound_nodes": [[["Conv3d_4e_1a_1x1_bn", 0, 0, {}]]]}, {"name": "Conv3d_4e_2a_1x1", "class_name": "Activation", "config": {"name": "Conv3d_4e_2a_1x1", "trainable": true, "dtype": "float32", "activation": "relu"}, "inbound_nodes": [[["Conv3d_4e_2a_1x1_bn", 0, 0, {}]]]}, {"name": "MaxPool2d_4e_3a_3x3", "class_name": "MaxPooling3D", "config": {"name": "MaxPool2d_4e_3a_3x3", "trainable": true, "dtype": "float32", "pool_size": [3, 3, 3], "padding": "same", "strides": [1, 1, 1], "data_format": "channels_last"}, "inbound_nodes": [[["Mixed_4d", 0, 0, {}]]]}, {"name": "Conv3d_4e_0a_1x1_conv", "class_name": "Conv3D", "config": {"name": "Conv3d_4e_0a_1x1_conv", "trainable": true, "dtype": "float32", "filters": 112, "kernel_size": [1, 1, 1], "strides": [1, 1, 1], "padding": "same", "data_format": "channels_last", "dilation_rate": [1, 1, 1], "activation": "linear", "use_bias": false, "kernel_initializer": {"class_name": "VarianceScaling", "config": {"scale": 1.0, "mode": "fan_avg", "distribution": "uniform", "seed": null}}, "bias_initializer": {"class_name": "Zeros", "config": {}}, "kernel_regularizer": null, "bias_regularizer": null, "activity_regularizer": null, "kernel_constraint": null, "bias_constraint": null}, "inbound_nodes": [[["Mixed_4d", 0, 0, {}]]]}, {"name": "Conv3d_4e_1b_3x3_conv", "class_name": "Conv3D", "config": {"name": "Conv3d_4e_1b_3x3_conv", "trainable": true, "dtype": "float32", "filters": 288, "kernel_size": [3, 3, 3], "strides": [1, 1, 1], "padding": "same", "data_format": "channels_last", "dilation_rate": [1, 1, 1], "activation": "linear", "use_bias": false, "kernel_initializer": {"class_name": "VarianceScaling", "config": {"scale": 1.0, "mode": "fan_avg", "distribution": "uniform", "seed": null}}, "bias_initializer": {"class_name": "Zeros", "config": {}}, "kernel_regularizer": null, "bias_regularizer": null, "activity_regularizer": null, "kernel_constraint": null, "bias_constraint": null}, "inbound_nodes": [[["Conv3d_4e_1a_1x1", 0, 0, {}]]]}, {"name": "Conv3d_4e_2b_3x3_conv", "class_name": "Conv3D", "config": {"name": "Conv3d_4e_2b_3x3_conv", "trainable": true, "dtype": "float32", "filters": 64, "kernel_size": [3, 3, 3], "strides": [1, 1, 1], "padding": "same", "data_format": "channels_last", "dilation_rate": [1, 1, 1], "activation": "linear", "use_bias": false, "kernel_initializer": {"class_name": "VarianceScaling", "config": {"scale": 1.0, "mode": "fan_avg", "distribution": "uniform", "seed": null}}, "bias_initializer": {"class_name": "Zeros", "config": {}}, "kernel_regularizer": null, "bias_regularizer": null, "activity_regularizer": null, "kernel_constraint": null, "bias_constraint": null}, "inbound_nodes": [[["Conv3d_4e_2a_1x1", 0, 0, {}]]]}, {"name": "Conv3d_4e_3b_1x1_conv", "class_name": "Conv3D", "config": {"name": "Conv3d_4e_3b_1x1_conv", "trainable": true, "dtype": "float32", "filters": 64, "kernel_size": [1, 1, 1], "strides": [1, 1, 1], "padding": "same", "data_format": "channels_last", "dilation_rate": [1, 1, 1], "activation": "linear", "use_bias": false, "kernel_initializer": {"class_name": "VarianceScaling", "config": {"scale": 1.0, "mode": "fan_avg", "distribution": "uniform", "seed": null}}, "bias_initializer": {"class_name": "Zeros", "config": {}}, "kernel_regularizer": null, "bias_regularizer": null, "activity_regularizer": null, "kernel_constraint": null, "bias_constraint": null}, "inbound_nodes": [[["MaxPool2d_4e_3a_3x3", 0, 0, {}]]]}, {"name": "Conv3d_4e_0a_1x1_bn", "class_name": "BatchNormalization", "config": {"name": "Conv3d_4e_0a_1x1_bn", "trainable": true, "dtype": "float32", "axis": 4, "momentum": 0.99, "epsilon": 0.001, "center": true, "scale": false, "beta_initializer": {"class_name": "Zeros", "config": {}}, "gamma_initializer": {"class_name": "Ones", "config": {}}, "moving_mean_initializer": {"class_name": "Zeros", "config": {}}, "moving_variance_initializer": {"class_name": "Ones", "config": {}}, "beta_regularizer": null, "gamma_regularizer": null, "beta_constraint": null, "gamma_constraint": null}, "inbound_nodes": [[["Conv3d_4e_0a_1x1_conv", 0, 0, {}]]]}, {"name": "Conv3d_4e_1b_3x3_bn", "class_name": "BatchNormalization", "config": {"name": "Conv3d_4e_1b_3x3_bn", "trainable": true, "dtype": "float32", "axis": 4, "momentum": 0.99, "epsilon": 0.001, "center": true, "scale": false, "beta_initializer": {"class_name": "Zeros", "config": {}}, "gamma_initializer": {"class_name": "Ones", "config": {}}, "moving_mean_initializer": {"class_name": "Zeros", "config": {}}, "moving_variance_initializer": {"class_name": "Ones", "config": {}}, "beta_regularizer": null, "gamma_regularizer": null, "beta_constraint": null, "gamma_constraint": null}, "inbound_nodes": [[["Conv3d_4e_1b_3x3_conv", 0, 0, {}]]]}, {"name": "Conv3d_4e_2b_3x3_bn", "class_name": "BatchNormalization", "config": {"name": "Conv3d_4e_2b_3x3_bn", "trainable": true, "dtype": "float32", "axis": 4, "momentum": 0.99, "epsilon": 0.001, "center": true, "scale": false, "beta_initializer": {"class_name": "Zeros", "config": {}}, "gamma_initializer": {"class_name": "Ones", "config": {}}, "moving_mean_initializer": {"class_name": "Zeros", "config": {}}, "moving_variance_initializer": {"class_name": "Ones", "config": {}}, "beta_regularizer": null, "gamma_regularizer": null, "beta_constraint": null, "gamma_constraint": null}, "inbound_nodes": [[["Conv3d_4e_2b_3x3_conv", 0, 0, {}]]]}, {"name": "Conv3d_4e_3b_1x1_bn", "class_name": "BatchNormalization", "config": {"name": "Conv3d_4e_3b_1x1_bn", "trainable": true, "dtype": "float32", "axis": 4, "momentum": 0.99, "epsilon": 0.001, "center": true, "scale": false, "beta_initializer": {"class_name": "Zeros", "config": {}}, "gamma_initializer": {"class_name": "Ones", "config": {}}, "moving_mean_initializer": {"class_name": "Zeros", "config": {}}, "moving_variance_initializer": {"class_name": "Ones", "config": {}}, "beta_regularizer": null, "gamma_regularizer": null, "beta_constraint": null, "gamma_constraint": null}, "inbound_nodes": [[["Conv3d_4e_3b_1x1_conv", 0, 0, {}]]]}, {"name": "Conv3d_4e_0a_1x1", "class_name": "Activation", "config": {"name": "Conv3d_4e_0a_1x1", "trainable": true, "dtype": "float32", "activation": "relu"}, "inbound_nodes": [[["Conv3d_4e_0a_1x1_bn", 0, 0, {}]]]}, {"name": "Conv3d_4e_1b_3x3", "class_name": "Activation", "config": {"name": "Conv3d_4e_1b_3x3", "trainable": true, "dtype": "float32", "activation": "relu"}, "inbound_nodes": [[["Conv3d_4e_1b_3x3_bn", 0, 0, {}]]]}, {"name": "Conv3d_4e_2b_3x3", "class_name": "Activation", "config": {"name": "Conv3d_4e_2b_3x3", "trainable": true, "dtype": "float32", "activation": "relu"}, "inbound_nodes": [[["Conv3d_4e_2b_3x3_bn", 0, 0, {}]]]}, {"name": "Conv3d_4e_3b_1x1", "class_name": "Activation", "config": {"name": "Conv3d_4e_3b_1x1", "trainable": true, "dtype": "float32", "activation": "relu"}, "inbound_nodes": [[["Conv3d_4e_3b_1x1_bn", 0, 0, {}]]]}, {"name": "Mixed_4e", "class_name": "Concatenate", "config": {"name": "Mixed_4e", "trainable": true, "dtype": "float32", "axis": 4}, "inbound_nodes": [[["Conv3d_4e_0a_1x1", 0, 0, {}], ["Conv3d_4e_1b_3x3", 0, 0, {}], ["Conv3d_4e_2b_3x3", 0, 0, {}], ["Conv3d_4e_3b_1x1", 0, 0, {}]]]}, {"name": "Conv3d_4f_1a_1x1_conv", "class_name": "Conv3D", "config": {"name": "Conv3d_4f_1a_1x1_conv", "trainable": true, "dtype": "float32", "filters": 160, "kernel_size": [1, 1, 1], "strides": [1, 1, 1], "padding": "same", "data_format": "channels_last", "dilation_rate": [1, 1, 1], "activation": "linear", "use_bias": false, "kernel_initializer": {"class_name": "VarianceScaling", "config": {"scale": 1.0, "mode": "fan_avg", "distribution": "uniform", "seed": null}}, "bias_initializer": {"class_name": "Zeros", "config": {}}, "kernel_regularizer": null, "bias_regularizer": null, "activity_regularizer": null, "kernel_constraint": null, "bias_constraint": null}, "inbound_nodes": [[["Mixed_4e", 0, 0, {}]]]}, {"name": "Conv3d_4f_2a_1x1_conv", "class_name": "Conv3D", "config": {"name": "Conv3d_4f_2a_1x1_conv", "trainable": true, "dtype": "float32", "filters": 32, "kernel_size": [1, 1, 1], "strides": [1, 1, 1], "padding": "same", "data_format": "channels_last", "dilation_rate": [1, 1, 1], "activation": "linear", "use_bias": false, "kernel_initializer": {"class_name": "VarianceScaling", "config": {"scale": 1.0, "mode": "fan_avg", "distribution": "uniform", "seed": null}}, "bias_initializer": {"class_name": "Zeros", "config": {}}, "kernel_regularizer": null, "bias_regularizer": null, "activity_regularizer": null, "kernel_constraint": null, "bias_constraint": null}, "inbound_nodes": [[["Mixed_4e", 0, 0, {}]]]}, {"name": "Conv3d_4f_1a_1x1_bn", "class_name": "BatchNormalization", "config": {"name": "Conv3d_4f_1a_1x1_bn", "trainable": true, "dtype": "float32", "axis": 4, "momentum": 0.99, "epsilon": 0.001, "center": true, "scale": false, "beta_initializer": {"class_name": "Zeros", "config": {}}, "gamma_initializer": {"class_name": "Ones", "config": {}}, "moving_mean_initializer": {"class_name": "Zeros", "config": {}}, "moving_variance_initializer": {"class_name": "Ones", "config": {}}, "beta_regularizer": null, "gamma_regularizer": null, "beta_constraint": null, "gamma_constraint": null}, "inbound_nodes": [[["Conv3d_4f_1a_1x1_conv", 0, 0, {}]]]}, {"name": "Conv3d_4f_2a_1x1_bn", "class_name": "BatchNormalization", "config": {"name": "Conv3d_4f_2a_1x1_bn", "trainable": true, "dtype": "float32", "axis": 4, "momentum": 0.99, "epsilon": 0.001, "center": true, "scale": false, "beta_initializer": {"class_name": "Zeros", "config": {}}, "gamma_initializer": {"class_name": "Ones", "config": {}}, "moving_mean_initializer": {"class_name": "Zeros", "config": {}}, "moving_variance_initializer": {"class_name": "Ones", "config": {}}, "beta_regularizer": null, "gamma_regularizer": null, "beta_constraint": null, "gamma_constraint": null}, "inbound_nodes": [[["Conv3d_4f_2a_1x1_conv", 0, 0, {}]]]}, {"name": "Conv3d_4f_1a_1x1", "class_name": "Activation", "config": {"name": "Conv3d_4f_1a_1x1", "trainable": true, "dtype": "float32", "activation": "relu"}, "inbound_nodes": [[["Conv3d_4f_1a_1x1_bn", 0, 0, {}]]]}, {"name": "Conv3d_4f_2a_1x1", "class_name": "Activation", "config": {"name": "Conv3d_4f_2a_1x1", "trainable": true, "dtype": "float32", "activation": "relu"}, "inbound_nodes": [[["Conv3d_4f_2a_1x1_bn", 0, 0, {}]]]}, {"name": "MaxPool2d_4f_3a_3x3", "class_name": "MaxPooling3D", "config": {"name": "MaxPool2d_4f_3a_3x3", "trainable": true, "dtype": "float32", "pool_size": [3, 3, 3], "padding": "same", "strides": [1, 1, 1], "data_format": "channels_last"}, "inbound_nodes": [[["Mixed_4e", 0, 0, {}]]]}, {"name": "Conv3d_4f_0a_1x1_conv", "class_name": "Conv3D", "config": {"name": "Conv3d_4f_0a_1x1_conv", "trainable": true, "dtype": "float32", "filters": 256, "kernel_size": [1, 1, 1], "strides": [1, 1, 1], "padding": "same", "data_format": "channels_last", "dilation_rate": [1, 1, 1], "activation": "linear", "use_bias": false, "kernel_initializer": {"class_name": "VarianceScaling", "config": {"scale": 1.0, "mode": "fan_avg", "distribution": "uniform", "seed": null}}, "bias_initializer": {"class_name": "Zeros", "config": {}}, "kernel_regularizer": null, "bias_regularizer": null, "activity_regularizer": null, "kernel_constraint": null, "bias_constraint": null}, "inbound_nodes": [[["Mixed_4e", 0, 0, {}]]]}, {"name": "Conv3d_4f_1b_3x3_conv", "class_name": "Conv3D", "config": {"name": "Conv3d_4f_1b_3x3_conv", "trainable": true, "dtype": "float32", "filters": 320, "kernel_size": [3, 3, 3], "strides": [1, 1, 1], "padding": "same", "data_format": "channels_last", "dilation_rate": [1, 1, 1], "activation": "linear", "use_bias": false, "kernel_initializer": {"class_name": "VarianceScaling", "config": {"scale": 1.0, "mode": "fan_avg", "distribution": "uniform", "seed": null}}, "bias_initializer": {"class_name": "Zeros", "config": {}}, "kernel_regularizer": null, "bias_regularizer": null, "activity_regularizer": null, "kernel_constraint": null, "bias_constraint": null}, "inbound_nodes": [[["Conv3d_4f_1a_1x1", 0, 0, {}]]]}, {"name": "Conv3d_4f_2b_3x3_conv", "class_name": "Conv3D", "config": {"name": "Conv3d_4f_2b_3x3_conv", "trainable": true, "dtype": "float32", "filters": 128, "kernel_size": [3, 3, 3], "strides": [1, 1, 1], "padding": "same", "data_format": "channels_last", "dilation_rate": [1, 1, 1], "activation": "linear", "use_bias": false, "kernel_initializer": {"class_name": "VarianceScaling", "config": {"scale": 1.0, "mode": "fan_avg", "distribution": "uniform", "seed": null}}, "bias_initializer": {"class_name": "Zeros", "config": {}}, "kernel_regularizer": null, "bias_regularizer": null, "activity_regularizer": null, "kernel_constraint": null, "bias_constraint": null}, "inbound_nodes": [[["Conv3d_4f_2a_1x1", 0, 0, {}]]]}, {"name": "Conv3d_4f_3b_1x1_conv", "class_name": "Conv3D", "config": {"name": "Conv3d_4f_3b_1x1_conv", "trainable": true, "dtype": "float32", "filters": 128, "kernel_size": [1, 1, 1], "strides": [1, 1, 1], "padding": "same", "data_format": "channels_last", "dilation_rate": [1, 1, 1], "activation": "linear", "use_bias": false, "kernel_initializer": {"class_name": "VarianceScaling", "config": {"scale": 1.0, "mode": "fan_avg", "distribution": "uniform", "seed": null}}, "bias_initializer": {"class_name": "Zeros", "config": {}}, "kernel_regularizer": null, "bias_regularizer": null, "activity_regularizer": null, "kernel_constraint": null, "bias_constraint": null}, "inbound_nodes": [[["MaxPool2d_4f_3a_3x3", 0, 0, {}]]]}, {"name": "Conv3d_4f_0a_1x1_bn", "class_name": "BatchNormalization", "config": {"name": "Conv3d_4f_0a_1x1_bn", "trainable": true, "dtype": "float32", "axis": 4, "momentum": 0.99, "epsilon": 0.001, "center": true, "scale": false, "beta_initializer": {"class_name": "Zeros", "config": {}}, "gamma_initializer": {"class_name": "Ones", "config": {}}, "moving_mean_initializer": {"class_name": "Zeros", "config": {}}, "moving_variance_initializer": {"class_name": "Ones", "config": {}}, "beta_regularizer": null, "gamma_regularizer": null, "beta_constraint": null, "gamma_constraint": null}, "inbound_nodes": [[["Conv3d_4f_0a_1x1_conv", 0, 0, {}]]]}, {"name": "Conv3d_4f_1b_3x3_bn", "class_name": "BatchNormalization", "config": {"name": "Conv3d_4f_1b_3x3_bn", "trainable": true, "dtype": "float32", "axis": 4, "momentum": 0.99, "epsilon": 0.001, "center": true, "scale": false, "beta_initializer": {"class_name": "Zeros", "config": {}}, "gamma_initializer": {"class_name": "Ones", "config": {}}, "moving_mean_initializer": {"class_name": "Zeros", "config": {}}, "moving_variance_initializer": {"class_name": "Ones", "config": {}}, "beta_regularizer": null, "gamma_regularizer": null, "beta_constraint": null, "gamma_constraint": null}, "inbound_nodes": [[["Conv3d_4f_1b_3x3_conv", 0, 0, {}]]]}, {"name": "Conv3d_4f_2b_3x3_bn", "class_name": "BatchNormalization", "config": {"name": "Conv3d_4f_2b_3x3_bn", "trainable": true, "dtype": "float32", "axis": 4, "momentum": 0.99, "epsilon": 0.001, "center": true, "scale": false, "beta_initializer": {"class_name": "Zeros", "config": {}}, "gamma_initializer": {"class_name": "Ones", "config": {}}, "moving_mean_initializer": {"class_name": "Zeros", "config": {}}, "moving_variance_initializer": {"class_name": "Ones", "config": {}}, "beta_regularizer": null, "gamma_regularizer": null, "beta_constraint": null, "gamma_constraint": null}, "inbound_nodes": [[["Conv3d_4f_2b_3x3_conv", 0, 0, {}]]]}, {"name": "Conv3d_4f_3b_1x1_bn", "class_name": "BatchNormalization", "config": {"name": "Conv3d_4f_3b_1x1_bn", "trainable": true, "dtype": "float32", "axis": 4, "momentum": 0.99, "epsilon": 0.001, "center": true, "scale": false, "beta_initializer": {"class_name": "Zeros", "config": {}}, "gamma_initializer": {"class_name": "Ones", "config": {}}, "moving_mean_initializer": {"class_name": "Zeros", "config": {}}, "moving_variance_initializer": {"class_name": "Ones", "config": {}}, "beta_regularizer": null, "gamma_regularizer": null, "beta_constraint": null, "gamma_constraint": null}, "inbound_nodes": [[["Conv3d_4f_3b_1x1_conv", 0, 0, {}]]]}, {"name": "Conv3d_4f_0a_1x1", "class_name": "Activation", "config": {"name": "Conv3d_4f_0a_1x1", "trainable": true, "dtype": "float32", "activation": "relu"}, "inbound_nodes": [[["Conv3d_4f_0a_1x1_bn", 0, 0, {}]]]}, {"name": "Conv3d_4f_1b_3x3", "class_name": "Activation", "config": {"name": "Conv3d_4f_1b_3x3", "trainable": true, "dtype": "float32", "activation": "relu"}, "inbound_nodes": [[["Conv3d_4f_1b_3x3_bn", 0, 0, {}]]]}, {"name": "Conv3d_4f_2b_3x3", "class_name": "Activation", "config": {"name": "Conv3d_4f_2b_3x3", "trainable": true, "dtype": "float32", "activation": "relu"}, "inbound_nodes": [[["Conv3d_4f_2b_3x3_bn", 0, 0, {}]]]}, {"name": "Conv3d_4f_3b_1x1", "class_name": "Activation", "config": {"name": "Conv3d_4f_3b_1x1", "trainable": true, "dtype": "float32", "activation": "relu"}, "inbound_nodes": [[["Conv3d_4f_3b_1x1_bn", 0, 0, {}]]]}, {"name": "Mixed_4f", "class_name": "Concatenate", "config": {"name": "Mixed_4f", "trainable": true, "dtype": "float32", "axis": 4}, "inbound_nodes": [[["Conv3d_4f_0a_1x1", 0, 0, {}], ["Conv3d_4f_1b_3x3", 0, 0, {}], ["Conv3d_4f_2b_3x3", 0, 0, {}], ["Conv3d_4f_3b_1x1", 0, 0, {}]]]}, {"name": "MaxPool2d_5a_2x2", "class_name": "MaxPooling3D", "config": {"name": "MaxPool2d_5a_2x2", "trainable": true, "dtype": "float32", "pool_size": [2, 2, 2], "padding": "same", "strides": [2, 2, 2], "data_format": "channels_last"}, "inbound_nodes": [[["Mixed_4f", 0, 0, {}]]]}, {"name": "Conv3d_5b_1a_1x1_conv", "class_name": "Conv3D", "config": {"name": "Conv3d_5b_1a_1x1_conv", "trainable": true, "dtype": "float32", "filters": 160, "kernel_size": [1, 1, 1], "strides": [1, 1, 1], "padding": "same", "data_format": "channels_last", "dilation_rate": [1, 1, 1], "activation": "linear", "use_bias": false, "kernel_initializer": {"class_name": "VarianceScaling", "config": {"scale": 1.0, "mode": "fan_avg", "distribution": "uniform", "seed": null}}, "bias_initializer": {"class_name": "Zeros", "config": {}}, "kernel_regularizer": null, "bias_regularizer": null, "activity_regularizer": null, "kernel_constraint": null, "bias_constraint": null}, "inbound_nodes": [[["MaxPool2d_5a_2x2", 0, 0, {}]]]}, {"name": "Conv3d_5b_2a_1x1_conv", "class_name": "Conv3D", "config": {"name": "Conv3d_5b_2a_1x1_conv", "trainable": true, "dtype": "float32", "filters": 32, "kernel_size": [1, 1, 1], "strides": [1, 1, 1], "padding": "same", "data_format": "channels_last", "dilation_rate": [1, 1, 1], "activation": "linear", "use_bias": false, "kernel_initializer": {"class_name": "VarianceScaling", "config": {"scale": 1.0, "mode": "fan_avg", "distribution": "uniform", "seed": null}}, "bias_initializer": {"class_name": "Zeros", "config": {}}, "kernel_regularizer": null, "bias_regularizer": null, "activity_regularizer": null, "kernel_constraint": null, "bias_constraint": null}, "inbound_nodes": [[["MaxPool2d_5a_2x2", 0, 0, {}]]]}, {"name": "Conv3d_5b_1a_1x1_bn", "class_name": "BatchNormalization", "config": {"name": "Conv3d_5b_1a_1x1_bn", "trainable": true, "dtype": "float32", "axis": 4, "momentum": 0.99, "epsilon": 0.001, "center": true, "scale": false, "beta_initializer": {"class_name": "Zeros", "config": {}}, "gamma_initializer": {"class_name": "Ones", "config": {}}, "moving_mean_initializer": {"class_name": "Zeros", "config": {}}, "moving_variance_initializer": {"class_name": "Ones", "config": {}}, "beta_regularizer": null, "gamma_regularizer": null, "beta_constraint": null, "gamma_constraint": null}, "inbound_nodes": [[["Conv3d_5b_1a_1x1_conv", 0, 0, {}]]]}, {"name": "Conv3d_5b_2a_1x1_bn", "class_name": "BatchNormalization", "config": {"name": "Conv3d_5b_2a_1x1_bn", "trainable": true, "dtype": "float32", "axis": 4, "momentum": 0.99, "epsilon": 0.001, "center": true, "scale": false, "beta_initializer": {"class_name": "Zeros", "config": {}}, "gamma_initializer": {"class_name": "Ones", "config": {}}, "moving_mean_initializer": {"class_name": "Zeros", "config": {}}, "moving_variance_initializer": {"class_name": "Ones", "config": {}}, "beta_regularizer": null, "gamma_regularizer": null, "beta_constraint": null, "gamma_constraint": null}, "inbound_nodes": [[["Conv3d_5b_2a_1x1_conv", 0, 0, {}]]]}, {"name": "Conv3d_5b_1a_1x1", "class_name": "Activation", "config": {"name": "Conv3d_5b_1a_1x1", "trainable": true, "dtype": "float32", "activation": "relu"}, "inbound_nodes": [[["Conv3d_5b_1a_1x1_bn", 0, 0, {}]]]}, {"name": "Conv3d_5b_2a_1x1", "class_name": "Activation", "config": {"name": "Conv3d_5b_2a_1x1", "trainable": true, "dtype": "float32", "activation": "relu"}, "inbound_nodes": [[["Conv3d_5b_2a_1x1_bn", 0, 0, {}]]]}, {"name": "MaxPool2d_5b_3a_3x3", "class_name": "MaxPooling3D", "config": {"name": "MaxPool2d_5b_3a_3x3", "trainable": true, "dtype": "float32", "pool_size": [3, 3, 3], "padding": "same", "strides": [1, 1, 1], "data_format": "channels_last"}, "inbound_nodes": [[["MaxPool2d_5a_2x2", 0, 0, {}]]]}, {"name": "Conv3d_5b_0a_1x1_conv", "class_name": "Conv3D", "config": {"name": "Conv3d_5b_0a_1x1_conv", "trainable": true, "dtype": "float32", "filters": 256, "kernel_size": [1, 1, 1], "strides": [1, 1, 1], "padding": "same", "data_format": "channels_last", "dilation_rate": [1, 1, 1], "activation": "linear", "use_bias": false, "kernel_initializer": {"class_name": "VarianceScaling", "config": {"scale": 1.0, "mode": "fan_avg", "distribution": "uniform", "seed": null}}, "bias_initializer": {"class_name": "Zeros", "config": {}}, "kernel_regularizer": null, "bias_regularizer": null, "activity_regularizer": null, "kernel_constraint": null, "bias_constraint": null}, "inbound_nodes": [[["MaxPool2d_5a_2x2", 0, 0, {}]]]}, {"name": "Conv3d_5b_1b_3x3_conv", "class_name": "Conv3D", "config": {"name": "Conv3d_5b_1b_3x3_conv", "trainable": true, "dtype": "float32", "filters": 320, "kernel_size": [3, 3, 3], "strides": [1, 1, 1], "padding": "same", "data_format": "channels_last", "dilation_rate": [1, 1, 1], "activation": "linear", "use_bias": false, "kernel_initializer": {"class_name": "VarianceScaling", "config": {"scale": 1.0, "mode": "fan_avg", "distribution": "uniform", "seed": null}}, "bias_initializer": {"class_name": "Zeros", "config": {}}, "kernel_regularizer": null, "bias_regularizer": null, "activity_regularizer": null, "kernel_constraint": null, "bias_constraint": null}, "inbound_nodes": [[["Conv3d_5b_1a_1x1", 0, 0, {}]]]}, {"name": "Conv3d_5b_2b_3x3_conv", "class_name": "Conv3D", "config": {"name": "Conv3d_5b_2b_3x3_conv", "trainable": true, "dtype": "float32", "filters": 128, "kernel_size": [3, 3, 3], "strides": [1, 1, 1], "padding": "same", "data_format": "channels_last", "dilation_rate": [1, 1, 1], "activation": "linear", "use_bias": false, "kernel_initializer": {"class_name": "VarianceScaling", "config": {"scale": 1.0, "mode": "fan_avg", "distribution": "uniform", "seed": null}}, "bias_initializer": {"class_name": "Zeros", "config": {}}, "kernel_regularizer": null, "bias_regularizer": null, "activity_regularizer": null, "kernel_constraint": null, "bias_constraint": null}, "inbound_nodes": [[["Conv3d_5b_2a_1x1", 0, 0, {}]]]}, {"name": "Conv3d_5b_3b_1x1_conv", "class_name": "Conv3D", "config": {"name": "Conv3d_5b_3b_1x1_conv", "trainable": true, "dtype": "float32", "filters": 128, "kernel_size": [1, 1, 1], "strides": [1, 1, 1], "padding": "same", "data_format": "channels_last", "dilation_rate": [1, 1, 1], "activation": "linear", "use_bias": false, "kernel_initializer": {"class_name": "VarianceScaling", "config": {"scale": 1.0, "mode": "fan_avg", "distribution": "uniform", "seed": null}}, "bias_initializer": {"class_name": "Zeros", "config": {}}, "kernel_regularizer": null, "bias_regularizer": null, "activity_regularizer": null, "kernel_constraint": null, "bias_constraint": null}, "inbound_nodes": [[["MaxPool2d_5b_3a_3x3", 0, 0, {}]]]}, {"name": "Conv3d_5b_0a_1x1_bn", "class_name": "BatchNormalization", "config": {"name": "Conv3d_5b_0a_1x1_bn", "trainable": true, "dtype": "float32", "axis": 4, "momentum": 0.99, "epsilon": 0.001, "center": true, "scale": false, "beta_initializer": {"class_name": "Zeros", "config": {}}, "gamma_initializer": {"class_name": "Ones", "config": {}}, "moving_mean_initializer": {"class_name": "Zeros", "config": {}}, "moving_variance_initializer": {"class_name": "Ones", "config": {}}, "beta_regularizer": null, "gamma_regularizer": null, "beta_constraint": null, "gamma_constraint": null}, "inbound_nodes": [[["Conv3d_5b_0a_1x1_conv", 0, 0, {}]]]}, {"name": "Conv3d_5b_1b_3x3_bn", "class_name": "BatchNormalization", "config": {"name": "Conv3d_5b_1b_3x3_bn", "trainable": true, "dtype": "float32", "axis": 4, "momentum": 0.99, "epsilon": 0.001, "center": true, "scale": false, "beta_initializer": {"class_name": "Zeros", "config": {}}, "gamma_initializer": {"class_name": "Ones", "config": {}}, "moving_mean_initializer": {"class_name": "Zeros", "config": {}}, "moving_variance_initializer": {"class_name": "Ones", "config": {}}, "beta_regularizer": null, "gamma_regularizer": null, "beta_constraint": null, "gamma_constraint": null}, "inbound_nodes": [[["Conv3d_5b_1b_3x3_conv", 0, 0, {}]]]}, {"name": "Conv3d_5b_2b_3x3_bn", "class_name": "BatchNormalization", "config": {"name": "Conv3d_5b_2b_3x3_bn", "trainable": true, "dtype": "float32", "axis": 4, "momentum": 0.99, "epsilon": 0.001, "center": true, "scale": false, "beta_initializer": {"class_name": "Zeros", "config": {}}, "gamma_initializer": {"class_name": "Ones", "config": {}}, "moving_mean_initializer": {"class_name": "Zeros", "config": {}}, "moving_variance_initializer": {"class_name": "Ones", "config": {}}, "beta_regularizer": null, "gamma_regularizer": null, "beta_constraint": null, "gamma_constraint": null}, "inbound_nodes": [[["Conv3d_5b_2b_3x3_conv", 0, 0, {}]]]}, {"name": "Conv3d_5b_3b_1x1_bn", "class_name": "BatchNormalization", "config": {"name": "Conv3d_5b_3b_1x1_bn", "trainable": true, "dtype": "float32", "axis": 4, "momentum": 0.99, "epsilon": 0.001, "center": true, "scale": false, "beta_initializer": {"class_name": "Zeros", "config": {}}, "gamma_initializer": {"class_name": "Ones", "config": {}}, "moving_mean_initializer": {"class_name": "Zeros", "config": {}}, "moving_variance_initializer": {"class_name": "Ones", "config": {}}, "beta_regularizer": null, "gamma_regularizer": null, "beta_constraint": null, "gamma_constraint": null}, "inbound_nodes": [[["Conv3d_5b_3b_1x1_conv", 0, 0, {}]]]}, {"name": "Conv3d_5b_0a_1x1", "class_name": "Activation", "config": {"name": "Conv3d_5b_0a_1x1", "trainable": true, "dtype": "float32", "activation": "relu"}, "inbound_nodes": [[["Conv3d_5b_0a_1x1_bn", 0, 0, {}]]]}, {"name": "Conv3d_5b_1b_3x3", "class_name": "Activation", "config": {"name": "Conv3d_5b_1b_3x3", "trainable": true, "dtype": "float32", "activation": "relu"}, "inbound_nodes": [[["Conv3d_5b_1b_3x3_bn", 0, 0, {}]]]}, {"name": "Conv3d_5b_2b_3x3", "class_name": "Activation", "config": {"name": "Conv3d_5b_2b_3x3", "trainable": true, "dtype": "float32", "activation": "relu"}, "inbound_nodes": [[["Conv3d_5b_2b_3x3_bn", 0, 0, {}]]]}, {"name": "Conv3d_5b_3b_1x1", "class_name": "Activation", "config": {"name": "Conv3d_5b_3b_1x1", "trainable": true, "dtype": "float32", "activation": "relu"}, "inbound_nodes": [[["Conv3d_5b_3b_1x1_bn", 0, 0, {}]]]}, {"name": "Mixed_5b", "class_name": "Concatenate", "config": {"name": "Mixed_5b", "trainable": true, "dtype": "float32", "axis": 4}, "inbound_nodes": [[["Conv3d_5b_0a_1x1", 0, 0, {}], ["Conv3d_5b_1b_3x3", 0, 0, {}], ["Conv3d_5b_2b_3x3", 0, 0, {}], ["Conv3d_5b_3b_1x1", 0, 0, {}]]]}, {"name": "Conv3d_5c_1a_1x1_conv", "class_name": "Conv3D", "config": {"name": "Conv3d_5c_1a_1x1_conv", "trainable": true, "dtype": "float32", "filters": 192, "kernel_size": [1, 1, 1], "strides": [1, 1, 1], "padding": "same", "data_format": "channels_last", "dilation_rate": [1, 1, 1], "activation": "linear", "use_bias": false, "kernel_initializer": {"class_name": "VarianceScaling", "config": {"scale": 1.0, "mode": "fan_avg", "distribution": "uniform", "seed": null}}, "bias_initializer": {"class_name": "Zeros", "config": {}}, "kernel_regularizer": null, "bias_regularizer": null, "activity_regularizer": null, "kernel_constraint": null, "bias_constraint": null}, "inbound_nodes": [[["Mixed_5b", 0, 0, {}]]]}, {"name": "Conv3d_5c_2a_1x1_conv", "class_name": "Conv3D", "config": {"name": "Conv3d_5c_2a_1x1_conv", "trainable": true, "dtype": "float32", "filters": 48, "kernel_size": [1, 1, 1], "strides": [1, 1, 1], "padding": "same", "data_format": "channels_last", "dilation_rate": [1, 1, 1], "activation": "linear", "use_bias": false, "kernel_initializer": {"class_name": "VarianceScaling", "config": {"scale": 1.0, "mode": "fan_avg", "distribution": "uniform", "seed": null}}, "bias_initializer": {"class_name": "Zeros", "config": {}}, "kernel_regularizer": null, "bias_regularizer": null, "activity_regularizer": null, "kernel_constraint": null, "bias_constraint": null}, "inbound_nodes": [[["Mixed_5b", 0, 0, {}]]]}, {"name": "Conv3d_5c_1a_1x1_bn", "class_name": "BatchNormalization", "config": {"name": "Conv3d_5c_1a_1x1_bn", "trainable": true, "dtype": "float32", "axis": 4, "momentum": 0.99, "epsilon": 0.001, "center": true, "scale": false, "beta_initializer": {"class_name": "Zeros", "config": {}}, "gamma_initializer": {"class_name": "Ones", "config": {}}, "moving_mean_initializer": {"class_name": "Zeros", "config": {}}, "moving_variance_initializer": {"class_name": "Ones", "config": {}}, "beta_regularizer": null, "gamma_regularizer": null, "beta_constraint": null, "gamma_constraint": null}, "inbound_nodes": [[["Conv3d_5c_1a_1x1_conv", 0, 0, {}]]]}, {"name": "Conv3d_5c_2a_1x1_bn", "class_name": "BatchNormalization", "config": {"name": "Conv3d_5c_2a_1x1_bn", "trainable": true, "dtype": "float32", "axis": 4, "momentum": 0.99, "epsilon": 0.001, "center": true, "scale": false, "beta_initializer": {"class_name": "Zeros", "config": {}}, "gamma_initializer": {"class_name": "Ones", "config": {}}, "moving_mean_initializer": {"class_name": "Zeros", "config": {}}, "moving_variance_initializer": {"class_name": "Ones", "config": {}}, "beta_regularizer": null, "gamma_regularizer": null, "beta_constraint": null, "gamma_constraint": null}, "inbound_nodes": [[["Conv3d_5c_2a_1x1_conv", 0, 0, {}]]]}, {"name": "Conv3d_5c_1a_1x1", "class_name": "Activation", "config": {"name": "Conv3d_5c_1a_1x1", "trainable": true, "dtype": "float32", "activation": "relu"}, "inbound_nodes": [[["Conv3d_5c_1a_1x1_bn", 0, 0, {}]]]}, {"name": "Conv3d_5c_2a_1x1", "class_name": "Activation", "config": {"name": "Conv3d_5c_2a_1x1", "trainable": true, "dtype": "float32", "activation": "relu"}, "inbound_nodes": [[["Conv3d_5c_2a_1x1_bn", 0, 0, {}]]]}, {"name": "MaxPool2d_5c_3a_3x3", "class_name": "MaxPooling3D", "config": {"name": "MaxPool2d_5c_3a_3x3", "trainable": true, "dtype": "float32", "pool_size": [3, 3, 3], "padding": "same", "strides": [1, 1, 1], "data_format": "channels_last"}, "inbound_nodes": [[["Mixed_5b", 0, 0, {}]]]}, {"name": "Conv3d_5c_0a_1x1_conv", "class_name": "Conv3D", "config": {"name": "Conv3d_5c_0a_1x1_conv", "trainable": true, "dtype": "float32", "filters": 384, "kernel_size": [1, 1, 1], "strides": [1, 1, 1], "padding": "same", "data_format": "channels_last", "dilation_rate": [1, 1, 1], "activation": "linear", "use_bias": false, "kernel_initializer": {"class_name": "VarianceScaling", "config": {"scale": 1.0, "mode": "fan_avg", "distribution": "uniform", "seed": null}}, "bias_initializer": {"class_name": "Zeros", "config": {}}, "kernel_regularizer": null, "bias_regularizer": null, "activity_regularizer": null, "kernel_constraint": null, "bias_constraint": null}, "inbound_nodes": [[["Mixed_5b", 0, 0, {}]]]}, {"name": "Conv3d_5c_1b_3x3_conv", "class_name": "Conv3D", "config": {"name": "Conv3d_5c_1b_3x3_conv", "trainable": true, "dtype": "float32", "filters": 384, "kernel_size": [3, 3, 3], "strides": [1, 1, 1], "padding": "same", "data_format": "channels_last", "dilation_rate": [1, 1, 1], "activation": "linear", "use_bias": false, "kernel_initializer": {"class_name": "VarianceScaling", "config": {"scale": 1.0, "mode": "fan_avg", "distribution": "uniform", "seed": null}}, "bias_initializer": {"class_name": "Zeros", "config": {}}, "kernel_regularizer": null, "bias_regularizer": null, "activity_regularizer": null, "kernel_constraint": null, "bias_constraint": null}, "inbound_nodes": [[["Conv3d_5c_1a_1x1", 0, 0, {}]]]}, {"name": "Conv3d_5c_2b_3x3_conv", "class_name": "Conv3D", "config": {"name": "Conv3d_5c_2b_3x3_conv", "trainable": true, "dtype": "float32", "filters": 128, "kernel_size": [3, 3, 3], "strides": [1, 1, 1], "padding": "same", "data_format": "channels_last", "dilation_rate": [1, 1, 1], "activation": "linear", "use_bias": false, "kernel_initializer": {"class_name": "VarianceScaling", "config": {"scale": 1.0, "mode": "fan_avg", "distribution": "uniform", "seed": null}}, "bias_initializer": {"class_name": "Zeros", "config": {}}, "kernel_regularizer": null, "bias_regularizer": null, "activity_regularizer": null, "kernel_constraint": null, "bias_constraint": null}, "inbound_nodes": [[["Conv3d_5c_2a_1x1", 0, 0, {}]]]}, {"name": "Conv3d_5c_3b_1x1_conv", "class_name": "Conv3D", "config": {"name": "Conv3d_5c_3b_1x1_conv", "trainable": true, "dtype": "float32", "filters": 128, "kernel_size": [1, 1, 1], "strides": [1, 1, 1], "padding": "same", "data_format": "channels_last", "dilation_rate": [1, 1, 1], "activation": "linear", "use_bias": false, "kernel_initializer": {"class_name": "VarianceScaling", "config": {"scale": 1.0, "mode": "fan_avg", "distribution": "uniform", "seed": null}}, "bias_initializer": {"class_name": "Zeros", "config": {}}, "kernel_regularizer": null, "bias_regularizer": null, "activity_regularizer": null, "kernel_constraint": null, "bias_constraint": null}, "inbound_nodes": [[["MaxPool2d_5c_3a_3x3", 0, 0, {}]]]}, {"name": "Conv3d_5c_0a_1x1_bn", "class_name": "BatchNormalization", "config": {"name": "Conv3d_5c_0a_1x1_bn", "trainable": true, "dtype": "float32", "axis": 4, "momentum": 0.99, "epsilon": 0.001, "center": true, "scale": false, "beta_initializer": {"class_name": "Zeros", "config": {}}, "gamma_initializer": {"class_name": "Ones", "config": {}}, "moving_mean_initializer": {"class_name": "Zeros", "config": {}}, "moving_variance_initializer": {"class_name": "Ones", "config": {}}, "beta_regularizer": null, "gamma_regularizer": null, "beta_constraint": null, "gamma_constraint": null}, "inbound_nodes": [[["Conv3d_5c_0a_1x1_conv", 0, 0, {}]]]}, {"name": "Conv3d_5c_1b_3x3_bn", "class_name": "BatchNormalization", "config": {"name": "Conv3d_5c_1b_3x3_bn", "trainable": true, "dtype": "float32", "axis": 4, "momentum": 0.99, "epsilon": 0.001, "center": true, "scale": false, "beta_initializer": {"class_name": "Zeros", "config": {}}, "gamma_initializer": {"class_name": "Ones", "config": {}}, "moving_mean_initializer": {"class_name": "Zeros", "config": {}}, "moving_variance_initializer": {"class_name": "Ones", "config": {}}, "beta_regularizer": null, "gamma_regularizer": null, "beta_constraint": null, "gamma_constraint": null}, "inbound_nodes": [[["Conv3d_5c_1b_3x3_conv", 0, 0, {}]]]}, {"name": "Conv3d_5c_2b_3x3_bn", "class_name": "BatchNormalization", "config": {"name": "Conv3d_5c_2b_3x3_bn", "trainable": true, "dtype": "float32", "axis": 4, "momentum": 0.99, "epsilon": 0.001, "center": true, "scale": false, "beta_initializer": {"class_name": "Zeros", "config": {}}, "gamma_initializer": {"class_name": "Ones", "config": {}}, "moving_mean_initializer": {"class_name": "Zeros", "config": {}}, "moving_variance_initializer": {"class_name": "Ones", "config": {}}, "beta_regularizer": null, "gamma_regularizer": null, "beta_constraint": null, "gamma_constraint": null}, "inbound_nodes": [[["Conv3d_5c_2b_3x3_conv", 0, 0, {}]]]}, {"name": "Conv3d_5c_3b_1x1_bn", "class_name": "BatchNormalization", "config": {"name": "Conv3d_5c_3b_1x1_bn", "trainable": true, "dtype": "float32", "axis": 4, "momentum": 0.99, "epsilon": 0.001, "center": true, "scale": false, "beta_initializer": {"class_name": "Zeros", "config": {}}, "gamma_initializer": {"class_name": "Ones", "config": {}}, "moving_mean_initializer": {"class_name": "Zeros", "config": {}}, "moving_variance_initializer": {"class_name": "Ones", "config": {}}, "beta_regularizer": null, "gamma_regularizer": null, "beta_constraint": null, "gamma_constraint": null}, "inbound_nodes": [[["Conv3d_5c_3b_1x1_conv", 0, 0, {}]]]}, {"name": "Conv3d_5c_0a_1x1", "class_name": "Activation", "config": {"name": "Conv3d_5c_0a_1x1", "trainable": true, "dtype": "float32", "activation": "relu"}, "inbound_nodes": [[["Conv3d_5c_0a_1x1_bn", 0, 0, {}]]]}, {"name": "Conv3d_5c_1b_3x3", "class_name": "Activation", "config": {"name": "Conv3d_5c_1b_3x3", "trainable": true, "dtype": "float32", "activation": "relu"}, "inbound_nodes": [[["Conv3d_5c_1b_3x3_bn", 0, 0, {}]]]}, {"name": "Conv3d_5c_2b_3x3", "class_name": "Activation", "config": {"name": "Conv3d_5c_2b_3x3", "trainable": true, "dtype": "float32", "activation": "relu"}, "inbound_nodes": [[["Conv3d_5c_2b_3x3_bn", 0, 0, {}]]]}, {"name": "Conv3d_5c_3b_1x1", "class_name": "Activation", "config": {"name": "Conv3d_5c_3b_1x1", "trainable": true, "dtype": "float32", "activation": "relu"}, "inbound_nodes": [[["Conv3d_5c_3b_1x1_bn", 0, 0, {}]]]}, {"name": "Mixed_5c", "class_name": "Concatenate", "config": {"name": "Mixed_5c", "trainable": true, "dtype": "float32", "axis": 4}, "inbound_nodes": [[["Conv3d_5c_0a_1x1", 0, 0, {}], ["Conv3d_5c_1b_3x3", 0, 0, {}], ["Conv3d_5c_2b_3x3", 0, 0, {}], ["Conv3d_5c_3b_1x1", 0, 0, {}]]]}, {"name": "global_avg_pool", "class_name": "AveragePooling3D", "config": {"name": "global_avg_pool", "trainable": true, "dtype": "float32", "pool_size": [2, 7, 7], "padding": "valid", "strides": [1, 1, 1], "data_format": "channels_last"}, "inbound_nodes": [[["Mixed_5c", 0, 0, {}]]]}], "input_layers": [["input_1", 0, 0]], "output_layers": [["global_avg_pool", 0, 0]]}}, {"class_name": "Dropout", "config": {"name": "dropout_1", "trainable": true, "dtype": "float32", "rate": 0.3, "noise_shape": null, "seed": null}}, {"class_name": "Conv3D", "config": {"name": "Conv3d_6a_1x1", "trainable": true, "dtype": "float32", "filters": 200, "kernel_size": [1, 1, 1], "strides": [1, 1, 1], "padding": "same", "data_format": "channels_last", "dilation_rate": [1, 1, 1], "activation": "linear", "use_bias": true, "kernel_initializer": {"class_name": "VarianceScaling", "config": {"scale": 1.0, "mode": "fan_avg", "distribution": "uniform", "seed": null}}, "bias_initializer": {"class_name": "Zeros", "config": {}}, "kernel_regularizer": null, "bias_regularizer": null, "activity_regularizer": null, "kernel_constraint": null, "bias_constraint": null}}, {"class_name": "Reshape", "config": {"name": "reshape_1", "trainable": true, "dtype": "float32", "target_shape": [1, 200]}}, {"class_name": "LSTM", "config": {"name": "lstm_1", "trainable": true, "dtype": "float32", "return_sequences": false, "return_state": false, "go_backwards": false, "stateful": false, "unroll": false, "units": 64, "activation": "tanh", "recurrent_activation": "sigmoid", "use_bias": true, "kernel_initializer": {"class_name": "VarianceScaling", "config": {"scale": 1.0, "mode": "fan_avg", "distribution": "uniform", "seed": null}}, "recurrent_initializer": {"class_name": "Orthogonal", "config": {"gain": 1.0, "seed": null}}, "bias_initializer": {"class_name": "Zeros", "config": {}}, "unit_forget_bias": true, "kernel_regularizer": null, "recurrent_regularizer": null, "bias_regularizer": null, "activity_regularizer": null, "kernel_constraint": null, "recurrent_constraint": null, "bias_constraint": null, "dropout": 0.5, "recurrent_dropout": 0.0, "implementation": 2}}, {"class_name": "Dense", "config": {"name": "dense_1", "trainable": true, "dtype": "float32", "units": 128, "activation": "relu", "use_bias": true, "kernel_initializer": {"class_name": "VarianceScaling", "config": {"scale": 1.0, "mode": "fan_avg", "distribution": "uniform", "seed": null}}, "bias_initializer": {"class_name": "Zeros", "config": {}}, "kernel_regularizer": null, "bias_regularizer": null, "activity_regularizer": null, "kernel_constraint": null, "bias_constraint": null}}, {"class_name": "Dense", "config": {"name": "dense_2", "trainable": true, "dtype": "float32", "units": 64, "activation": "relu", "use_bias": true, "kernel_initializer": {"class_name": "VarianceScaling", "config": {"scale": 1.0, "mode": "fan_avg", "distribution": "uniform", "seed": null}}, "bias_initializer": {"class_name": "Zeros", "config": {}}, "kernel_regularizer": null, "bias_regularizer": null, "activity_regularizer": null, "kernel_constraint": null, "bias_constraint": null}}, {"class_name": "Dense", "config": {"name": "dense_3", "trainable": true, "dtype": "float32", "units": 2, "activation": "softmax", "use_bias": true, "kernel_initializer": {"class_name": "VarianceScaling", "config": {"scale": 1.0, "mode": "fan_avg", "distribution": "uniform", "seed": null}}, "bias_initializer": {"class_name": "Zeros", "config": {}}, "kernel_regularizer": null, "bias_regularizer": null, "activity_regularizer": null, "kernel_constraint": null, "bias_constraint": null}}]}, "keras_version": "2.3.1", "backend": "tensorflow"}